models/CPC_stagernet_16.pth (torch_old, 973958 bytes, 16 tensors)

conv1.weight f4 [11, 1, 1, 11]
-0.27676862 -0.054459486 -0.22961855 -0.10602675 -0.23908477 -0.14377955 0.031808402 0.026309414
0.12438343 -0.11734653 0.21333376 -0.035189986 0.16063583 -0.020587765 -0.060566653 0.33853132
0.20128024 -0.060157932 0.19999057 0.1215145 0.21867134 -0.027911259 -0.32873842 0.2064015
0.26421037 -0.21492478 -0.2531923 0.2699131 -0.2590172 0.31641075 0.05681289 0.12866986
-0.20071872 -0.18005733 0.027762506 0.12418914 0.14449356 0.17243387 -0.10580507 0.30066127
-0.15364543 0.007911624 -0.18058036 0.24601589 0.33801857 -0.19953887 0.3132487 -0.09579959
-0.06700948 -0.004988277 -0.06762515 -0.2603652 -0.18614918 -0.24258631 -0.28660902 -0.15845956
0.02186929 0.3027997 0.1829901 -0.06321609 -0.07668564 -0.045914773 0.19712138 0.016690813
0.2011202 -0.09146262 -0.095007524 0.0038767485 0.16939187 -0.07457645 -0.17550856 -0.16614097
0.28695795 -0.17815094 -0.154218 -0.15124242 0.120115556 -0.26807418 -0.10050808 0.036410138
0.22020535 -0.06095067 -0.2342228 -0.012215648 -0.10370208 -0.16171014 0.11587729 0.085299246
0.27980408 -0.030245192 0.26691157 -0.2752586 0.1578802 -0.08337548 -0.06340147 -0.13059412
-0.06796785 -0.0021054177 0.08313587 0.20825364 -0.12136823 0.15733005 -0.018481245 0.23940665
-0.18593898 -0.13982248 0.12586261 0.19580892 0.010016651 0.06204573 -0.0030719815 0.18838197
0.2692924 -0.01820841 -0.16595599 -0.26826504 -0.063029915 0.04619641 -0.18884526 -0.055462696
0.086273305
00000000: 9eb4 8dbe e910 5fbd 2021 6bbe 8d24 d9bd
00000010: a3d2 74be f23a 13be 8749 023d d786 d73c
00000020: bdbc fe3d 6153 f0bd 2a74 5a3e 6023 10bd
00000030: b87d 243e aca7 a8bc bd14 78bd fa53 ad3e
00000040: 681c 4e3e 2a68 76bd 54ca 4c3e 98dc f83d
00000050: 61eb 5f3e 27a6 e4bc 6750 a8be ea5a 533e
00000060: 9546 873e 3e15 5cbe 6ca2 81be 0d32 8a3e
00000070: e79d 84be 9700 a23e a2b4 683d 08c2 033e
00000080: 3589 4dbe f360 38be 326e e33c e056 fe3d
00000090: 1ff6 133e 8192 303e 54b0 d8bd 46f0 993e
000000a0: 3a55 1dbe c29f 013c 0fea 38be 97eb 7b3e
000000b0: c510 ad3e eb53 4cbe 2262 a03e 9332 c4bd
000000c0: 443c 89bd b374 a3bb 0e7f 8abd 964e 85be
000000d0: e49d 3ebe 8c68 78be 6bbe 92be 3943 22be
000000e0: 3a27 b33c 9008 9b3e c261 3b3e 7077 81bd
000000f0: 5c0d 9dbd 2111 3cbd 30da 493e 2cbb 883c
00000100: 74f2 4d3e c150 bbbd 4e93 c2bd 0c11 7e3b
00000110: 1075 2d3e 8abb 98bd 84b8 33be dc20 2abe
00000120: 27ec 923e 336d 36be 53eb 1dbe 4bdf 1abe
00000130: 25ff f53d 0541 89be 2ed7 cdbd cc22 153d
00000140: 837d 613e 69a7 79bd 1ad8 6fbe 2424 48bc
00000150: c261 d4bd 5897 25be 1351 ed3d 5fb1 ae3d
00000160: 7b42 8f3e c4c4 f7bc a2a8 883e b2ee 8cbe
00000170: 59ab 213e c3c0 aabd a1d8 81bd 77ba 05be
00000180: ba32 8bbd 0cfb 09bb 2443 aa3d 7140 553e
00000190: e88f f8bd 211b 213e fb65 97bc 0427 753e
000001a0: ca66 3ebe a02d 0fbe 21e2 003e 2282 483e
000001b0: e11c 243c aa23 7e3d 4c53 49bb 34e7 403e
000001c0: b2e0 893e ce29 95bc 5ef0 29be 095a 89be
000001d0: d415 81bd 7238 3d3d a760 41be da2c 63bd
000001e0: 0fb0 b03d

conv1.bias f4 [11]
-0.21527171 -0.15310344 -0.16963433 -0.25234315 0.19083029 0.037741177 -0.24730892 0.12790242
-0.29174897 0.09455501 0.10564647
00000000: 3070 5cbe 26c7 1cbe 9fb4 2dbe 1f33 81be
00000010: 0469 433e 7e96 1a3d 8d3e 7dbe daf8 023e
00000020: 1f60 95be 0fa6 c13d 2d5d d83d

conv2.weight f4 [16, 1, 50, 1]
-0.056591876 -0.0877105 0.06048253 -0.02427186 0.11285481 -0.06703708 -0.08387352 0.13727877
0.13387491 0.112956226 0.05742088 -0.04296397 -0.11751416 -0.12290196 -0.101143934 -0.13263793
-0.016842172 -0.015375744 0.12341912 0.01718645 0.011367508 0.053316176 0.13533229 0.15790202
-0.009347504 -0.022914484 -0.078533575 -0.07585464 -0.05213565 -0.15284401 -0.16538212 0.069495074
0.06877971 0.06892583 -0.07779972 -0.002358565 0.15489523 -0.09589256 -0.03887914 -0.03885003
0.05272264 0.07562283 -0.006285541 -0.0847405 -0.009638032 0.0040849573 0.059698455 -0.0808594
-0.037551444 -0.08352688 0.10269843 0.0025769442 -0.11291232 0.07669578 0.06436286 0.13110024
0.056510337 -0.05667749 -0.012615859 0.059286322 0.030269437 0.10502859 0.07884396 0.11368389
0.116943866 0.1102365 -0.0012569854 0.06552062 0.073997736 -0.08270679 0.08974459 -0.030317184
0.05281383 0.15773109 0.0037479775 0.13676965 -0.07697649 0.12841444 0.035937242 0.0033901338
0.02600369 0.09482327 0.06259089 0.050740466 -0.05553958 -0.07635641 0.098533325 -0.05531407
0.16591689 -0.041252803 -0.073644824 0.021554524 0.11926829 -0.11381847 0.08351899 -0.06550799
-0.016462922 0.061691772 -0.14391175 0.05066244 0.0050539235 0.05866573 -0.09843823 0.0044220877
-0.009475404 0.13739726 -0.08342197 0.006985268 -0.007928718 0.12531804 -0.085612655 0.12176009
-0.077528425 -0.05538947 0.030996192 -0.07710407 -0.050751623 -0.13611914 0.086021714 -0.118780844
-0.04384787 -0.013597252 0.12550355 0.0075099873 0.06411185 -0.124670185 0.08520851 -0.00888206
-0.042806584 0.045008384 0.14691836 0.03259531 -0.010176718 0.12972318 0.03982514 -0.07881092
0.014721431 -0.1103858 -0.102015905 -0.033150382 -0.08027233 -0.03917039 -0.13341953 -0.05954589
-0.01142752 -0.041394774 0.062649414 -0.07739051 0.0602704 -0.011374074 -0.006999835 0.05044928
-0.1000252 -0.02825669 -0.023562213 0.0832683 -0.044846646 -0.12957922 -0.058047686 0.06703157
0.091508314 0.12667547 0.050585 -0.13568327 -0.122311674 -0.07015149 -0.13426308 0.04770023
0.06827897 0.12116933 -0.048961256 -0.060429644 -0.014911021 0.07114474 -0.111406334 0.1354899
-0.101118185 -0.0135950055 0.06073557 0.09814864 -0.103770174 -0.05031735 -0.08628142 0.110368535
0.12782504 -0.040450722 -0.04623865 0.12339903 -0.061763667 0.12569913 0.064141415 0.123114884
-0.14881593 0.08580992 -0.118706174 0.012072066 0.07745884 0.08935844 0.0926446 0.1215081
0.1250053 0.07498112 -0.0035692304 0.14928623 0.090913616 0.07567563 -0.025673358 -0.10437017
-0.12130827 0.15421684 -0.02405935 0.13003804 0.077729166 0.04543607 -0.09957182 0.07664771
0.034194488 -0.008453354 0.016216323 0.053047314 -0.14359988 -0.052881427 -0.04078048 0.108937934
-0.025358874 -0.10441259 -0.09090911 -0.06167671 -0.062700644 0.08659374 -0.117839076 -0.045932375
-0.07155931 -0.06837184 -0.14182499 -0.054536074 -0.0821035 0.093092605 -0.066961564 -0.012800985
-0.025783798 0.022982689 -0.0988668 0.11846228 -0.14272746 0.016679525 -0.0035716463 0.11004038
0.15402696 0.14790145 0.117524154 -0.007910003 -0.030761408 0.14602067 -0.1061508 -0.00989364
00000000: e2cc 67bd 90a1 b3bd 88bc 773d c8d5 c6bc
00000010: 6c20 e73d bd4a 89bd e1c5 abbd ce92 0c3e
00000020: 8116 093e 9855 e73d 2832 6b3d fdfa 2fbd
00000030: 44ab f0bd 06b4 fbbd 8d24 cfbd 3dd2 07be
00000040: 98f8 89bc 8bea 7bbc 2ac3 fc3d 99ca 8c3c
00000050: c93e 3a3c 1062 5a3d 8c94 0a3e 11b1 213e
00000060: 4626 19bc 28b7 bbbc 36d6 a0bd ad59 9bbd
00000070: 318c 55bd 2483 1cbe ee59 29be 6f53 8e3d
00000080: 60dc 8c3d fc28 8d3d 7655 9fbd 2892 1abb
00000090: db9c 1e3e 5263 c4bd bc3f 1fbd 3621 1fbd
000000a0: b2f3 573d 24e0 9a3d f1f6 cdbb 6d8c adbd
000000b0: d6e8 1dbc 1bdb 853b 5e86 743d 9d99 a5bd
000000c0: 8bcf 19bd 2410 abbd 8e53 d23d f3e1 283b
000000d0: 933e e7bd ad12 9d3d add0 833d 243f 063e
000000e0: 6277 673d a826 68bd bfb2 4ebc 37d6 723d
000000f0: 9cf7 f73c 3b19 d73d f178 a13d 19d3 e83d
00000100: 4480 ef3d adc3 e13d 6ec1 a4ba ad2f 863d
00000110: 208c 973d 2d62 a9bd 03cc b73d be5b f8bc
00000120: 5153 583d 4284 213e a1a0 753b 580d 0c3e
00000130: daa5 9dbd 137f 033e ee32 133d 022d 5e3b
00000140: b105 d53c b432 c23d a72f 803d 3cd5 4f3d
00000150: 787d 63bd c060 9cbd d7cb c93d 0291 62bd
00000160: 1ee6 293e b3f8 28bd 19d3 96bd 1d93 b03c
00000170: ef42 f43d a819 e9bd 010c ab3d 0e29 86bd
00000180: 40dd 86bc 83b0 7c3d 9a5d 13be 6b83 4f3d
00000190: 629b a53b 7a4b 703d fc99 c9bd 29e7 903b
000001a0: ba3e 1bbc deb1 0c3e 23d9 aabd ade4 e43b
000001b0: 74e7 01bc 5f53 003e b055 afbd 5b5d f93d
000001c0: 39c7 9ebd 12e0 62bd baeb fd3c bde8 9dbd
000001d0: efe0 4fbd d162 0bbe 272c b03d 5f43 f3bd
000001e0: d399 33bd 02c7 5ebc 0184 003e 5716 f63b
000001f0: 134d 833d 1553 ffbd cd81 ae3d 0f86 11bc
00000200: f555 2fbd b65a 383d c471 163e a982 053d
00000210: 40bc 26bc 27d6 043e b01f 233d 9f67 a1bd
00000220: 2832 713c f311 e2bd b7ed d0bd b2c8 07bd
00000230: d265 a4bd 2271 20bd 219f 08be 64e6 73bd
00000240: 7e3a 3bbc 918d 29bd 564e 803d ea7e 9ebd
00000250: 18de 763d 535a 3abc df5e e5bb e7a3 4e3d
00000260: 03da ccbd 937a e7bc 8b05 c1bc 9288 aa3d
00000270: 1eb1 37bd 6ab0 04be 69c3 6dbd d947 893d
00000280: b668 bb3d 37b7 013e 3832 4f3d 8ef0 0abe
00000290: 8b7e fabd 96ab 8fbd 437c 09be 5161 433d
000002a0: d8d5 8b3d a027 f83d 998b 48bd 1385 77bd
000002b0: 5b4d 74bc 55b4 913d 0129 e4bd ddbd 0a3e
000002c0: 0d17 cfbd 96bd 5ebc dcc5 783d 2702 c93d
000002d0: 7585 d4bd 9119 4ebd 50b4 b0bd e608 e23d
000002e0: 91e4 023e a8af 25bd bd64 3dbd a1b8 fc3d
000002f0: e6fb 7cbd 46b7 003e 935c 833d a823 fc3d
00000300: 3463 18be 1dbd af3d 391c f3bd eac9 453c
00000310: bea2 9e3d 8f01 b73d 74bc bd3d 3dd9 f83d
00000320: 6401 003e b48f 993d c0e9 69bb 7dde 183e
00000330: eb30 ba3d d3fb 9a3d ef50 d2bc 07c0 d5bd
00000340: 7870 f8bd 05eb 1d3e 1d18 c5bc b128 053e
00000350: 7830 9f3d 2c1b 3a3d 4fec cbbd 79f9 9c3d
00000360: 850f 0c3d f07f 0abc 18d8 843c 2448 593d
00000370: d90b 13be 329a 58bd 6f09 27bd da1a df3d
00000380: 6abd cfbc 45d6 d5bd 8e2e babd b8a0 7cbd
00000390: 3269 80bd 0f58 b13d 9d55 f1bd 9623 3cbd
000003a0: b08d 92bd 8906 8cbd 923a 11be 3861 5fbd
000003b0: e125 a8bd 56a7 be3d 2523 89bd 39bb 51bc
000003c0: 8b38 d3bc 3146 bc3c ad7a cabd 5a9c f23d
000003d0: 2627 12be 80a3 883c 4812 6abb da5c e13d
000003e0: 3eb9 1d3e 7a73 173e 81b0 f03d f598 01bc
000003f0: 59ff fbbc 7186 153e 9765 d9bd ef18 22bc

conv2.bias f4 [16]
0.030228445 0.015419884 -0.038672682 -0.12130568 -0.08157293 0.11562295 0.10593712 -0.08603395
-0.05952192 -0.0021061143 -0.120097406 -0.10961672 0.058415674 -0.116055444 -0.023254462 -0.14045851
00000000: a5a1 f73c aea3 7c3c 3f67 1ebd 1d6f f8bd
00000010: b50f a7bd bacb ec3d 90f5 d83d 9132 b0bd
00000020: 42cd 73bd bc06 0abb a1f5 f5bd bb7e e0bd
00000030: 4645 6f3d 7aae edbd 2480 bebc 5bd4 0fbe

conv3.weight f4 [16, 16, 50, 1]
0.007472255 0.03622352 -0.001518731 -0.011848614 -0.01218771 -0.021427544 0.02533086 0.022484949
0.02002787 -0.00090371276 -0.0073283063 0.036465023 0.013063275 -0.017108079 -0.040878855 0.008467724
-0.022807378 0.010799641 0.05806973 0.015724504 0.040720545 0.019519126 0.005067949 0.028945869
0.011536972 -0.04266734 0.0013043779 -0.043579526 -0.011187887 0.008323989 0.03923786 0.0024622104
0.04771796 0.045080233 0.033474598 0.048952606 -0.027389465 0.03729729 -0.0014172052 0.029486634
-0.01894311 0.015957918 -0.05211836 -0.03532887 0.012006702 -0.030749943 0.038406756 0.032322627
0.003098869 0.053792365 0.040785164 0.0008293094 -0.020457467 -0.023174753 -0.0062325727 0.0320522
0.03554855 0.023353308 0.02674142 -0.015183924 -0.0021912472 -0.001754689 0.009690397 -0.019535
-0.004039167 -0.0036815347 0.02223606 -0.017821882 -0.015281993 0.029669676 -0.004994285 0.025685677
0.02410206 0.04900718 0.013393815 0.029301854 0.013812889 0.0097797075 0.0030452244 0.01896055
-0.03343104 0.005524604 -0.016126774 -0.0013042092 0.044164594 -0.004068704 -0.016257336 -0.00088212214
0.032718834 -0.01906079 -0.032616314 -0.005827979 0.007619914 -0.0030403272 -0.023275025 0.017414965
-0.017248316 0.0052734343 0.040208265 0.001388067 0.029432524 0.026471494 0.032354295 -0.0090179425
-0.023573572 -0.035637375 -0.011273921 0.012758257 -0.03064822 0.011378956 -0.01889274 0.039955195
-0.026226308 0.014539472 -0.030396516 0.02810903 -0.015471193 0.03108276 -0.017030496 0.015569507
0.0024861943 0.018021172 -0.022583693 0.01477197 0.011763835 -0.023092438 -0.043005202 -0.063114665
-0.06634339 0.010178835 0.016723746 0.017833875 -0.015573802 -0.0016888768 0.025678473 0.02752915
0.02517027 -0.013150777 -0.019499376 -0.020111352 9.807981e-05 0.008963169 0.007731565 -0.040421978
-0.037159394 -0.03339229 0.0018312635 -0.01219233 0.0056394725 0.006398578 -0.005048128 -0.0019338055
-0.05820234 0.0027627998 0.027876953 -0.020348186 0.0021815095 -0.016808754 0.007873771 0.021188784
-0.014995789 -0.026239298 -0.02414455 -0.0036549664 0.02990608 0.034053493 -0.0109596895 0.018947843
-0.011285384 0.02980587 0.023666076 0.046047844 -0.0035071305 -0.0064941794 -0.018208552 -0.00739719
0.011857453 -0.044451617 -0.017440438 -0.0243881 -0.026339734 0.045393288 0.053506695 0.028666032
-0.015248005 0.017576927 -0.010166859 0.028138723 -0.0038850983 -0.021976495 -0.028266963 0.030748924
0.022206387 0.015051235 0.023854282 0.01532611 0.021989785 0.025807742 0.008142433 0.031581663
0.011643034 -0.03816008 -0.004467366 -0.0073686913 -0.04515322 -0.051596057 0.020992817 0.03623818
0.007039519 -0.009806613 -0.027304826 0.021386944 0.014130732 -0.026625117 -0.013217752 -0.040811222
-0.0028537896 -0.03136652 -0.035305563 0.013321958 0.0042618746 -0.00658052 -0.032827757 -0.0112675745
-0.030511072 -0.011229154 0.014187272 -0.03262471 -0.013696485 -0.05241802 -0.045566928 0.018805152
-0.023340221 -0.016074672 -0.02124918 0.008842405 -0.02443075 0.014677596 -0.0029498078 -0.056709453
0.021295276 0.014352224 -0.054216955 -0.008352509 -0.035890475 -0.008782678 -0.009183424 0.01816136
-0.03811369 -0.007684978 0.015836926 0.010479819 -0.021343809 0.0050320933 -0.041793197 -0.04240535
00000000: d1d9 f43b 1d5f 143d 2810 c7ba b020 42bc
00000010: f6ae 47bc d188 afbc aa82 cf3c 5b32 b83c
00000020: 7d11 a43c 23e7 6cba 4a22 f0bb 595c 153d
00000030: 5907 563c 3e26 8cbc 9670 27bd 35bc 0a3c
00000040: 8ad6 babc faf0 303c 86da 6d3d add0 803c
00000050: 96ca 263d 93e6 9f3c 0a11 a63b e31f ed3c
00000060: 9105 3d3c f3c3 2ebd a9f7 aa3a 7280 32bd
00000070: 664d 37bc 5761 083c e1b7 203d 095d 213b
00000080: e873 433d 0da6 383d a91c 093d 8782 483d
00000090: df5f e0bc 0bc5 183d 84c1 b9ba f48d f13c
000000a0: 952e 9bbc 2eba 823c 107a 55bd 01b5 10bd
000000b0: c2b7 443c 4ee7 fbbc 6750 1d3d bb64 043d
000000c0: 6516 4b3b 6255 5c3d 580e 273d 0366 593a
000000d0: 6b96 a7bc fbd8 bdbc 9c3a ccbb 2b49 033d
000000e0: 5b9b 113d 704f bf3c d310 db3c fec5 78bc
000000f0: 079b 0fbb 98fd e5ba 79c4 1e3c dd07 a0bc
00000100: fd5a 84bb e745 71bb 6628 b63c 32ff 91bc
00000110: 5361 7abc d20d f33c 19a7 a3bb c56a d23c
00000120: af71 c53c c1bb 483d bb71 5b3c 710a f03c
00000130: 754f 623c 113b 203c 6392 473b 2853 9b3c
00000140: fcee 08bd bd07 b53b 4c1c 84bc 00f2 aaba
00000150: efe5 343d c352 85bb 1b2e 85bc 373e 67ba
00000160: 2f04 063d 6025 9cbc af98 05bd a2f8 bebb
00000170: 79b0 f93b 3a40 47bb 44ab bebc d4a9 8e3c
00000180: 574c 8dbc c6cc ac3b 6cb1 243d cdef b53a
00000190: 7a1c f13c bfda d83c f085 043d febf 13bc
000001a0: 5d1d c1bc 7ff8 11bd 40b6 38bc 0208 513c
000001b0: fa11 fbbc cd6e 3a3c f3c4 9abc 0fa8 233d
000001c0: 8ed8 d6bc f736 6e3c 1d02 f9bc e944 e63c
000001d0: e37a 7dbc 46a1 fe3c 8a83 8bbc 3f17 7f3c
000001e0: 6bef 223b 23a1 933c 7001 b9bc 2206 723c
000001f0: 1abd 403c 5a2c bdbc 3926 30bd 4342 81bd
00000200: 0bdf 87bd 21c5 263c 3d00 893c 5918 923c
00000210: 4329 7fbc 4d5d ddba a95b d23c d084 e13c
00000220: e231 ce3c 5b76 57bc 28bd 9fbc 90c0 a4bc
00000230: 32b0 cd38 41da 123c 1159 fd3b 8491 25bd
00000240: 7334 18bd 5bc6 08bd 0207 f03a 57c2 47bc
00000250: 53cb b83b 2aab d13b c46a a5bb bf77 fdba
00000260: 9465 6ebd 1710 353b 355e e43c 3db1 a6bc
00000270: a8f7 0e3b 83b2 89bc fd00 013c 1a94 ad3c
00000280: e6b0 75bc ccf3 d6bc cbca c5bc 2988 6fbb
00000290: 98fd f43c ad7b 0b3d 4590 33bc 8238 9b3c
000002a0: 55e6 38bc 712b f43c 5cdf c13c aa9c 3c3d
000002b0: e3d7 65bb 20cd d4bb 1a2a 95bc 2164 f2bb
000002c0: c345 423c e612 36bd 40df 8ebc 8dc9 c7bc
000002d0: 6dc6 d7bc 50ee 393d d629 5b3d 07d5 ea3c
000002e0: c5d2 79bc 7dfd 8f3c e692 26bc 2e83 e63c
000002f0: 229d 7ebb 0d08 b4bc 1e90 e7bc 2be5 fb3c
00000300: 2bea b53c 7599 763c 0e6a c33c 5d1a 7b3c
00000310: ec23 b43c c26a d33c d767 053c c65b 013d
00000320: 6dc2 3e3c be4d 1cbd fb62 92bb 1075 f1bb
00000330: 95f2 38bd 6356 53bd 21f9 ab3c 7c6e 143d
00000340: c4ab e63b ebab 20bc 5fae dfbc ac33 af3c
00000350: 9684 673c eb1c dabc 458f 58bc ab29 27bd
00000360: a506 3bbb 2e7a 00bd 919c 10bd 5744 5a3c
00000370: 32a7 8b3b 67a1 d7bb 6676 06bd a29b 38bc
00000380: 5bf2 f9bc 7cfa 37bc bb71 683c 7da1 05bd
00000390: 3967 60bc 47b4 56bd 63a4 3abd 430d 9a3c
000003a0: fe33 bfbc 08af 83bc c312 aebc bcdf 103c
000003b0: ff22 c8bc 4d7a 703c 9051 41bb 2c48 68bd
000003c0: 6e73 ae3c 9725 6b3c 9912 5ebd f6d8 08bc
000003d0: e401 13bd 39e5 0fbc 1276 16bc 22c7 943c
000003e0: 1a1d 1cbd 45d2 fbbb 71bc 813c 8cb3 2b3c
000003f0: 36d9 aebc 42e4 a43b 582f 2bbd 3bb1 2dbd

conv3.bias f4 [16]
-0.03377184 -0.03430286 -0.10617413 -0.00923249 -0.0309648 -0.036953997 -0.003613726 -0.0037319136
-0.0061052805 -0.081282474 -0.11435728 -0.07630117 -0.027666911 -0.03792179 -0.013980306 -0.1271151
00000000: 5754 0abd 2881 0cbd d371 d9bd df43 17bc
00000010: e4a9 fdbc 135d 17bd 43d4 6cbb 1f93 74bb
00000020: ce0e c8bb 6d77 a6bd 2634 eabd ca43 9cbd
00000030: b8a5 e2bc e153 1bbd a70d 65bc 762a 02be

dense1.weight f4 [100, 2288]
0.00828162 0.024059871 0.0056957076 -0.0038665216 -0.009503839 -0.02747638 0.005644465 -0.011360144
0.011330155 -0.014769828 -0.00073241687 -0.0018090211 0.031636693 0.014934973 0.006401375 -0.017432893
0.028976418 0.0059937174 0.013140289 0.007633274 0.00777168 -0.026191186 -0.004889166 0.005261509
-0.04074568 0.010888077 -0.025000505 0.01700292 -0.049838737 -0.028967248 -0.0075824414 -0.013181971
-0.008837461 0.03815322 0.00040296087 0.037343938 0.023470815 0.022635782 -0.021595959 -0.006195397
-0.00034791048 0.0058494927 -0.008169871 -0.027489213 0.007337997 -0.006269468 0.017043138 0.03252169
-0.0014528072 -0.004540581 0.00342618 -0.020509563 -0.02127815 -0.0059147477 -0.016533744 -0.0034580443
-0.010682896 0.031812876 0.016202932 0.016911983 0.024313783 0.002493381 0.005469792 0.0037516442
0.014626413 -0.010157473 0.0149948085 0.0030805855 0.019721504 0.0057435683 -0.016321508 0.02019024
0.020075623 0.0047495216 0.03460958 0.0047729793 -0.002731692 0.0015109829 0.010139132 0.0043629045
0.0008470876 0.02155276 0.011929099 0.024815602 0.014350545 -0.014006792 0.001972317 0.013706455
0.009162485 0.020368526 0.00550309 0.015120398 0.007638794 0.0013634276 -0.0070012254 0.0029026428
0.045856845 -0.0047776797 -0.016745783 -0.0067823217 -0.01616311 0.005391271 -5.8700836e-05 -0.008877598
-0.004350227 0.009299633 -0.01081216 0.019956917 -0.007157784 -0.0022642727 -0.01835728 0.0023988313
0.018588893 -0.01350558 -0.009679615 0.013153 0.005801158 0.0033233918 0.0041215867 -0.0074472786
-0.014709781 -0.00025533565 -0.009716447 0.01191048 0.010616071 -0.0061439336 -0.008284327 -0.012153603
-0.017776033 -0.007157272 -0.008755648 -0.0020106458 0.021902835 0.004472184 0.014787955 0.019800045
-0.006296108 0.010664932 0.023211215 0.0024913587 0.06559767 -0.0011367842 -0.0011459646 -0.0013685072
-0.016041989 -0.02431658 -0.011127474 -0.020059478 0.03930953 0.04517355 0.0047856704 -0.023509836
-0.008040874 0.005142578 0.010915519 0.006455823 0.014500885 0.007384551 -0.005237131 0.006846643
-0.009759644 -0.0005077415 -0.03136288 -0.02760237 -0.0030090024 0.006468426 -0.008096322 0.0020610022
0.011523281 -0.010955779 -0.030240634 -0.007096876 0.0055915085 0.0015219144 -0.016812474 -0.02456628
-0.030998131 -0.038586948 -0.011583144 0.0017324229 0.02110836 0.0098628355 -0.016573973 -0.016797803
0.00975401 -0.026747653 -0.02225506 0.005549509 -0.0075384118 0.027315002 0.038806904 -0.007185194
-0.015756851 -0.004748603 -0.007994548 -0.013271785 -0.0037278337 -0.013083444 -0.0009632115 -0.01326973
0.026595654 0.015156715 -0.00017023945 -0.008451172 0.03229206 -0.014754193 -0.003288814 0.01110427
0.0019676888 0.011484418 -0.008198233 -0.0053459257 0.010226031 0.017095275 0.021500597 0.021052072
-0.037952937 -0.021810144 -0.02130628 -0.0018815277 0.021059085 -0.019999128 -0.021978628 0.010579328
0.004711744 -0.020688439 0.0024000446 -0.0038631621 -0.02050477 0.0009428481 0.008372384 -0.009628043
0.013985006 -0.013718316 0.005278414 0.009288841 -0.021060443 -0.028342811 -0.0222251 -0.011110866
0.01503874 0.005159689 -0.0019236949 0.021648757 0.022633497 -0.016388008 -0.008822534 0.0010909288
-0.01806286 -0.0031786228 -0.010418394 0.015391648 -0.018163126 -0.007976324 0.017961077 -0.015450539
00000000: a2af 073c 3519 c53c 0fa3 ba3b 7865 7dbb
00000010: fdb5 1bbc 2516 e1bc 34f5 b83b e61f 3abc
00000020: 1da2 393c 26fd 71bc aaff 3fba ad1c edba
00000030: 7a95 013d d1b1 743c a0c2 d13b 6dcf 8ebc
00000040: f45f ed3c f266 c43b 5e4a 573c 8b20 fa3b
00000050: 94a9 fe3b e68e d6bc 4c35 a0bb bd68 ac3b
00000060: f1e4 26bd e863 323c dccd ccbc b549 8b3c
00000070: b423 4cbd b94c edbc 2176 f8bb 32f9 57bc
00000080: ffca 10bc 8d46 1c3d 7e44 d339 f5f5 183d
00000090: de45 c03c ad6e b93c 02ea b0bc c202 cbbb
000000a0: c167 b6b9 1aad bf3b ecda 05bc 0f31 e1bc
000000b0: 9573 f03b 1c70 cdbb 0d9e 8b3c 7735 053d
000000c0: 1f6c beba 27c9 94bb c389 603b ac03 a8bc
000000d0: 844f aebc 80d0 c1bb c671 87bc 5ba0 62bb
000000e0: 5007 2fbc 384e 023d 03bc 843c 008b 8a3c
000000f0: b32d c73c fe67 233b f13b b33b 25de 753b
00000100: 9fa3 6f3c 886b 26bc c9ac 753c a6e3 493b
00000110: fe8e a13c 8b34 bc3b afb4 85bc 0166 a53c
00000120: a275 a43c e0a1 9b3b c6c2 0d3d a766 9c3b
00000130: 3006 33bb 2c0c c63a 9a1e 263c b2f6 8e3b
00000140: 160f 5e3a 6a8f b03c 4572 433c 174a cb3c
00000150: 8c1e 6b3c be7c 65bc fd41 013b 0a91 603c
00000160: 3f1e 163c e5db a63c 4453 b43b 8cbb 773c
00000170: d94e fa3b 0ab5 b23a 896a e5bb 443a 3e3b
00000180: 63d4 3b3d 158e 9cbb 742e 89bc 3d3e debb
00000190: 8068 84bc 42a9 b03b 8b35 76b8 5873 11bc
000001a0: 598c 8ebb 7d5d 183c 7c25 31bc b07c a33c
000001b0: d88b eabb 3164 14bb 0262 96bc b635 1d3b
000001c0: bc47 983c 8246 5dbc 3f97 1ebc ae7f 573c
000001d0: a417 be3b 43cd 593b 600e 873b 4d08 f4bb
000001e0: 4b01 71bc 92de 85b9 bc31 1fbc 2d24 433c
000001f0: 07ef 2d3c 0d53 c9bb fcba 07bc e81f 47bc
00000200: 0b9f 91bc 8d87 eabb d973 0fbc 0ac5 03bb
00000210: 936d b33c 668b 923b 2e49 723c b433 a23c
00000220: 954f cebb f8bb 2e3c 7225 be3c 1046 233b
00000230: 1258 863d 2600 95ba 3134 96ba 7b5f b3ba
00000240: 7d6a 83bc 9033 c7bc 0250 36bc c653 a4bc
00000250: 0803 213d e607 393d 1dd1 9c3b b397 c0bc
00000260: dfbd 03bc 1283 a83b 01d7 323c 5e8b d33b
00000270: 1f95 6d3c 1bfa f13b 3d9c abbb ce59 e03b
00000280: eae6 1fbc f519 05ba 5d76 00bd 5e1e e2bc
00000290: af32 45bb 17f5 d33b 70a6 04bc e111 073b
000002a0: 25cc 3c3c de7f 33bc 35bb f7bc e98c e8bb
000002b0: f938 b73b f97a c73a 50ba 89bc 393f c9bc
000002c0: cbef fdbc 590d 1ebd 3ac7 3dbc 7712 e33a
000002d0: 70eb ac3c bb97 213c 24c6 87bc 8c9b 89bc
000002e0: 48cf 1f3c e51d dbbc 3e50 b6bc a8d8 b53b
000002f0: c804 f7bb b6c3 df3c fdf3 1e3d c771 ebbb
00000300: 8314 81bc 2b9a 9bbb 91fb 02bc e771 59bc
00000310: ac4e 74bb f15b 56bc 0880 7cba 4869 59bc
00000320: 21df d93c df53 783c 4e82 32b9 c976 0abc
00000330: ae44 043d 92bb 71bc 2589 57bb afee 353c
00000340: 57f4 003b 2429 3c3c e251 06bc e02c afbb
00000350: 158b 273c 640b 8c3c 0522 b03c 6575 ac3c
00000360: 8a74 1bbd 30ab b2bc 828a aebc 989d f6ba
00000370: 1a84 ac3c 36d5 a3bc 860c b4bc eb54 2d3c
00000380: f964 9a3b cd7a a9bc 114a 1d3b 1b2d 7dbb
00000390: 9ff9 a7bc 7729 773a 532c 093c f0be 1dbc
000003a0: 5e21 653c cac2 60bc 8cf6 ac3b 3930 183c
000003b0: f386 acbc 2f2f e8bc 6a11 b6bc 5a0a 36bc
000003c0: 0c65 763c 9c12 a93b 7d24 fcba bc58 b13c
000003d0: e269 b93c 2540 86bc 648c 10bc 7ffd 8e3a
000003e0: 90f8 93bc 7150 50bb e9b1 2abc 402d 7c3c
000003f0: d6ca 94bc 21af 02bc 1c23 933c 4224 7dbc

dense1.bias f4 [100]
0.03495489 0.003452076 -0.0019043533 0.022647832 0.003075842 -0.009792129 0.035864078 -0.01210208
-0.057214707 0.019819412 0.026230965 0.009110248 -0.003948662 0.029842474 -0.028118629 -0.060657896
0.008944207 -0.0020946763 0.00790658 -0.008871189 -0.011321973 0.029449081 -0.013512185 0.041507486
0.03151567 0.022549033 0.012584217 -0.022110999 0.037363186 0.00043803043 -0.004721415 0.053143214
-0.006504326 0.018874109 -0.015332088 -0.034086272 0.015938813 -0.022907173 -0.026627474 0.04957386
-0.011773299 0.03131822 0.0045080814 0.026195705 0.028877363 -0.0036512215 -0.012301568 0.033467863
0.0149017675 -0.0027621717 0.016429167 0.027297778 0.0067736288 -0.030709635 0.011648836 0.022879077
-0.016973909 -0.02901122 -0.03494126 -0.036016453 0.07060411 -0.016821308 -0.0035079024 -0.042546418
0.016010126 0.012288733 -0.047991104 -0.008515643 -0.043016974 0.0017964648 0.02728191 0.008674209
-0.02494159 0.02673934 0.02164427 -0.03385515 -0.011023288 -0.011248375 0.009997753 -0.026031515
-0.006640943 -0.010446564 0.016145905 0.010674366 0.02400427 -0.023852902 0.047103737 -0.022110073
-0.010206477 0.015642421 0.030254347 0.006921703 -0.007693481 -0.00901099 -0.010254189 -0.0162278
0.011748719 0.029357126 0.011995927 0.0804241
00000000: dc2c 0f3d 3a3c 623b 7e9b f9ba f287 b93c
00000010: 1194 493b 2a6f 20bc 36e6 123d cd47 46bc
00000020: f859 6abd 525c a23c 52e2 d63c 2643 153c
00000030: c763 81bb 3478 f43c 0a59 e6bc 6a74 78bd
00000040: b98a 123c d646 09bb 9a8a 013c 7758 11bc
00000050: cc7f 39bc 333f f13c 3662 5dbc c103 2a3d
00000060: 9316 013d c0b8 b83c 082e 4e3c 2022 b5bc
00000070: 240a 193d 73a7 e539 1ab6 9abb b3ac 593d
00000080: 3e22 d5bb e09d 9a3c 7033 7bbc 0c9e 0bbd
00000090: 1d92 823c d3a7 bbbc dc21 dabc f60d 4b3d
000000a0: cce4 40bc 8947 003d 87b8 933b 6098 d63c
000000b0: 3890 ec3c 5549 6fbb 848c 49bc 9915 093d
000000c0: 8b26 743c 8d05 35bb 7696 863c 979f df3c
000000d0: 51f5 dd3b c692 fbbc c2da 3e3c e76c bb3c
000000e0: de0c 8bbc f0a8 edbc 911e 0fbd fd85 13bd
000000f0: e398 903d d7cc 89bc d6e4 65bb 2745 2ebd
00000100: ab27 833c af56 493c 5292 44bd 3285 0bbc
00000110: 9132 30bd 5b77 eb3a 507e df3c 451e 0e3c
00000120: 4e52 ccbc 760c db3c 534f b13c b3ab 0abd
00000130: 059b 34bc 1b4b 38bc 9ecd 233c 0b40 d5bc
00000140: 449c d9bb 1128 2bbc 6b44 843c 89e3 2e3c
00000150: 9aa4 c43c 2967 c3bc d9ef 403d 2f20 b5bc
00000160: 1139 27bc 8924 803c f7d7 f73c 74cf e23b
00000170: 9919 fcbb d5a2 13bc 3001 28bc 2af0 84bc
00000180: b37d 403c 5b7e f03c 918a 443c 64b5 a43d

batchnorm1.weight f4 [16]
0.97716296 0.998291 0.95696956 1.0159243 1.0133603 0.9439809 1.0016514 0.9651479
1.0226223 1.0185525 0.9920636 1.0047545 1.0620053 0.99843407 1.0138781 0.9724513
00000000: 5a27 7a3f 0090 7f3f f5fb 743f cf09 823f
00000010: cab5 813f bba8 713f 1d36 803f ef13 773f
00000020: 4ae5 823f ee5f 823f e1f7 7d3f cc9b 803f
00000030: caef 873f 6099 7f3f c2c6 813f 92f2 783f

batchnorm1.bias f4 [16]
-0.10430608 -0.12371989 -0.12797591 -0.12596527 0.021846727 -0.05165676 0.04215079 -0.07996395
-0.049839243 0.072757795 -0.015980953 -0.059584763 0.15318021 0.08263137 -0.039216533 0.1278152
00000000: 6d9e d5bd db60 fdbd 1e0c 03be 0afd 00be
00000010: e8f7 b23c 0a96 53bd 4fa6 2c3d 24c4 a3bd
00000020: 3c24 4cbd 0a02 953d 7dea 82bc 270f 74bd
00000030: 46db 1c3e a33a a93d 84a1 20bd fde1 023e

batchnorm1.running_mean f4 [16]
0.16513254 0.3506585 0.17154 0.0769168 0.13950993 0.25879332 0.21514884 0.09358586
0.19204356 0.100212164 0.1661622 0.07338314 0.27309993 0.0690735 0.13278349 0.061072767
00000000: 8118 293e 8389 b33e 2fa8 2f3e 8e86 9d3d
00000010: b1db 0e3e 8f80 843e fa4f 5c3e f2a9 bf3d
00000020: 11a7 443e 093c cd3d 6c26 2a3e e649 963d
00000030: c1d3 8b3e 6876 8d3d 65f8 073e 7027 7a3d

batchnorm1.running_var f4 [16]
0.024149625 0.27420232 0.040999755 0.022757424 0.045842785 0.041382004 0.036198407 0.01668113
0.08075042 0.012644856 0.067213155 0.014616386 0.106081225 0.01627619 0.034645632 0.013069187
00000000: 6fd5 c53c 3f64 8c3e 5cef 273d c76d ba3c
00000010: a5c5 3b3d 2d80 293d c844 143d dda6 883c
00000020: 7a60 a53d 5f2c 4f3c 0da7 893d 9179 6f3c
00000030: 1d41 d93d a555 853c 94e8 0d3d 2520 563c

batchnorm2.weight f4 [16]
0.9506423 0.9776795 0.9038995 0.9628338 0.9441864 0.93090945 0.9639869 0.9643942
0.9170952 0.9132357 0.9079344 0.9411583 0.9466474 0.9353889 0.9434479 0.90236616
00000000: 4b5d 733f 3449 7a3f f565 673f 477c 763f
00000010: 33b6 713f 1550 6e3f d8c7 763f 8ae2 763f
00000020: c0c6 6a3f d1c9 693f 646e 683f c0ef 703f
00000030: 7c57 723f a675 6f3f cd85 713f 7801 673f

batchnorm2.bias f4 [16]
-0.0073309485 -0.009052444 -0.03281457 -0.009778207 -0.05665465 -0.030741438 -0.014600825 -0.029352985
0.028401101 -0.034954235 -0.033133462 -0.055620793 -0.019021412 -0.040993113 -0.05524957 -0.029542556
00000000: 7438 f0bb b450 14bc 9268 06bd c634 20bc
00000010: b50e 68bd 78d5 fbbc 4c38 6fbc ac75 f0bc
00000020: 6da9 e83c 2c2c 0fbd f4b6 07bd a1d2 63bd
00000030: cbd2 9bbc 65e8 27bd 604d 62bd 3b03 f2bc

batchnorm2.running_mean f4 [16]
1.1936134 0.99537593 0.83542734 1.550374 1.616263 1.564317 1.2742372 1.574943
1.2349694 1.1376351 1.1224538 1.4205344 1.6547234 1.4247954 1.3496056 0.8400434
00000000: 53c8 983f f5d0 7e3f 91de 553f a872 c63f
00000010: b5e1 ce3f 8a3b c83f 341a a33f bb97 c93f
00000020: 7a13 9e3f 079e 913f 91ac 8f3f 12d4 b53f
00000030: facd d33f b25f b63f e0bf ac3f 160d 573f

batchnorm2.running_var f4 [16]
0.48465243 0.34445643 0.93744135 0.5618561 0.5435294 0.8007511 0.4868007 0.4786139
1.2034098 1.7780325 1.4785665 0.58290917 0.5954032 0.4769973 0.45769846 0.8795908
00000000: 5d24 f83e 985c b03e 28fc 6f3f cdd5 0f3f
00000010: be24 0b3f 06fe 4c3f f13d f93e e20c f53e
00000020: 5509 9a3f 9296 e33f ab41 bd3f 8939 153f
00000030: 586c 183f fd38 f43e 7457 ea3e dd2c 613f
