models/RP_stagernet.pth (torch_old, 973958 bytes, 16 tensors)

conv1.weight f4 [11, 1, 1, 11]
-0.35145795 -0.051191695 0.06890213 -0.25717947 -0.29193944 0.32035792 0.48981217 0.34427518
-0.081183866 -0.1492379 -0.06975471 -0.014287382 0.09038479 -0.1398001 0.27985123 0.32920644
0.08494774 -0.27593994 -0.09676309 -0.23136976 -0.037984483 0.07701678 0.15544143 -0.18227033
0.2506277 -0.18330674 0.068498485 -0.11112862 0.14691807 -0.17069392 0.26886547 -0.27432445
-0.12870562 0.3468708 -0.10375181 0.10628389 -0.30043435 0.26399302 0.109172024 -0.029585535
-0.033895865 0.08815466 -0.09981556 -0.10663457 -0.32278317 0.26688898 -0.3214846 0.07838944
-0.09824404 0.12114822 0.2500247 -0.2227486 0.10317427 0.2927187 -0.21990757 0.19623148
-0.26574203 -0.25134647 0.011835457 -0.11162552 0.08606679 0.085109495 0.24596474 -0.070818394
0.23106684 0.06508581 -0.22644264 0.08002211 -0.038730424 0.1186428 -0.18081456 0.03435424
0.15231422 0.124051504 0.095010914 0.049225025 0.29370177 -0.03775013 -0.23563153 0.16952416
0.11782712 0.30610356 -0.09070905 0.02189637 0.0055180104 0.13144355 0.11300354 0.0032311263
0.08518182 -0.21023934 0.22605936 0.21254171 -0.13345124 -0.18612157 -0.16974458 0.31172553
0.054778893 -0.0037334987 -0.16180843 -0.14290762 0.116029866 0.06841762 -0.019940635 -0.084363006
-0.31627712 0.006997893 0.14953928 -0.22265956 -0.10045438 0.100544855 0.20106024 -0.0018555811
0.25086772 -0.22221556 0.053529132 0.13893338 0.1020786 0.054905463 0.116871126 -0.08809799
-0.19102255
00000000: 4cf2 b3be 62ae 51bd 8f1c 8d3d 07ad 83be
00000010: 1679 95be f405 a43e a9c8 fa3e d644 b03e
00000020: ba43 a6bd d2d1 18be 8fdb 8ebd a015 6abc
00000030: a91b b93d c227 0fbe a948 8f3e bf8d a83e
00000040: 15f9 ad3d 0048 8dbe ba2b c6bd 32ec 6cbe
00000050: 9e95 1bbd f9ba 9d3d 0a2c 1f3e 13a5 3abe
00000060: 4652 803e c3b4 3bbe ef48 8c3d 6797 e3bd
00000070: b171 163e 63ca 2ebe bca8 893e 4174 8cbe
00000080: 68cb 03be 0d99 b13e d47b d4bd 5eab d93d
00000090: 88d2 99be 182a 873e 9595 df3d 5d5d f2bc
000000a0: 64d6 0abd 6e8a b43d 1a6c ccbd 3a63 dabd
000000b0: d643 a5be aca5 883e a199 a4be a58a a03d
000000c0: 2c34 c9bd 8f1c f83d 3d03 803e 3618 64be
000000d0: 084d d33d 3adf 953e 732f 61be e8f0 483e
000000e0: 570f 88be 7cb0 80be 81e9 413c ec9b e4bd
000000f0: c943 b03d e34d ae3d 2ede 7b3e 3c09 91bd
00000100: c99c 6c3e b64b 853d 94e0 67be a2e2 a33d
00000110: cba3 1ebd fffa f23d 7427 39be 08b7 0c3d
00000120: 42f8 1b3e b70e fe3d 1595 c23d 2ea0 493d
00000130: 1460 963e e19f 1abd 6449 71be be97 2d3e
00000140: 584f f13d 9bb9 9c3e abc5 b9bd 0460 b33c
00000150: 6dd0 b43b 2399 063e 666e e73d 4ec1 533b
00000160: ce73 ae3d fb48 57be 1b7c 673e 89a4 593e
00000170: 71a7 08be a796 3ebe 86d1 2dbe 7d9a 9f3e
00000180: d55f 603d b7ad 74bb 1cb1 25be 6056 12be
00000190: 11a1 ed3d 8a1e 8c3d 8b5a a3bc 83c6 acbd
000001a0: 13ef a1be 954e e53b d320 193e de00 64be
000001b0: 07bb cdbd 76ea cd3d bce2 4d3e f836 f3ba
000001c0: bc71 803e 7a8c 63be 5d41 5b3d 8d44 0e3e
000001d0: 960e d13d 8de4 603d 215a ef3d b86c b4bd
000001e0: 6a9b 43be

conv1.bias f4 [11]
-0.082096614 0.017079337 0.019451316 -0.016657846 -0.064826764 0.045163304 0.11651979 0.12209404
0.06914442 0.064048685 -0.03369522
00000000: 4522 a8bd f7e9 8b3c 5e58 9f3c 0976 88bc
00000010: e5c3 84bd 28fd 383d eda1 ee3d 710c fa3d
00000020: 979b 8d3d f52b 833d 0004 0abd

conv2.weight f4 [16, 1, 50, 1]
0.050072912 0.18569426 0.06822554 -0.13193943 -0.11076702 0.10518753 0.11850291 -0.15224518
-0.045762453 0.20573238 0.2380615 -0.029754382 -0.04724445 0.102748 0.042463224 -0.048037652
0.026561785 0.022906186 -0.15833624 0.079833 0.15950799 -0.075103976 -0.042822327 -0.16151491
0.059458748 0.002633909 -0.009619239 -0.17314486 -0.083819725 0.0068376074 -0.0603798 0.009123936
-0.089457914 0.0831235 0.061776236 -0.15196912 -0.06122758 -0.13416155 0.06949942 0.024149712
-0.14296937 0.08197774 0.004113029 -0.092014425 -0.03974101 0.099415526 -0.06863493 0.06848435
-0.12527005 0.020457318 -0.094313994 -0.19451036 0.030817773 -0.119784676 0.032228913 -0.11326983
-0.061344348 -0.07675966 -0.15147276 0.100716874 0.04998389 -0.16721797 -0.04314483 0.1533373
-0.117936745 -0.076186545 0.0055780755 0.08565822 0.11609415 -0.12773572 -0.060551 0.124076836
0.11208914 -0.0069281724 0.032567166 0.10624411 0.018350516 0.1287323 -0.13658811 0.04901865
0.0894395 0.059939098 -0.043572355 -0.04257226 0.100123726 -0.0035374553 -0.020782283 -0.125758
0.006162825 -0.022606343 -0.07712635 -0.12189053 0.15531966 -0.04081963 -0.0527593 -0.037496097
-0.033882283 -0.074105226 0.15522645 0.1127975 0.0081533 -0.094587706 -0.028650472 -0.10979761
0.012909495 -0.05778259 0.13415068 0.10761176 -0.022754727 0.07028116 0.06802704 0.13041751
0.0080364635 -0.1483685 -0.122713186 0.05942037 0.07731186 0.09884792 -0.07334951 -0.123756416
-0.03133124 -0.16407114 -0.06690119 0.2159166 0.022924611 0.13832699 -0.14707784 -0.21019077
-0.17890142 0.04531132 0.1922634 0.03670646 -0.13053486 -0.080331944 -0.09382367 0.14700015
0.1566306 0.02199372 0.102460116 0.07251245 -0.036323834 -0.03382222 0.032086432 -0.14912958
0.029347297 -0.10366851 0.1341034 0.05431336 -0.11422139 -0.00026996803 0.12913631 -0.012309612
-0.06399991 0.12143378 0.03885727 -0.0761079 0.0022984494 0.11346841 -0.064763755 0.017850684
-0.0031860531 0.14233495 0.015693517 0.058042005 -0.13933647 -0.12489355 0.11248726 -0.0118823415
0.08190117 -0.1315454 -0.03960128 0.038281187 -0.013349046 -0.1602692 0.022566032 -0.00651417
0.117951676 0.027980924 -0.10384618 -0.08462605 -0.025999535 0.023697533 -0.22912946 0.0069825565
-0.08673404 0.035432447 -0.08965214 0.122787386 -0.03239969 -0.053153574 -0.12530082 -0.05983152
0.10501919 -0.04370184 0.0013968331 0.056550864 0.2418987 0.18249826 -0.02038535 -0.07573942
-0.0626508 0.09678005 -0.15803045 0.14700356 -0.040512778 -0.0564936 -0.18445921 0.18225247
-0.009605712 0.049619228 0.023148581 0.17221685 -0.1887964 -0.02782205 -0.19623627 0.14102715
-0.13950847 0.059668835 -0.07492673 -0.05294548 -0.0700974 0.21136065 0.176983 -0.088799626
-0.018152162 0.11109269 0.013468213 -0.011321247 -0.0034278843 -0.08770381 0.016199617 0.124946594
0.015205689 -0.11740968 0.08108362 -0.040727444 0.101917766 -0.105851635 0.0032317524 -0.079491034
-0.024494193 -0.10270387 -0.011224151 -0.031147417 0.06545261 -0.05378415 -0.02918479 0.15201655
-0.012161436 0.04741364 -0.14535102 0.078809395 -0.12616569 0.06862148 0.1997458 -0.09197313
00000000: 4119 4d3d a326 3e3e d5b9 8b3d 211b 07be
00000010: d2d9 e2bd 8f6c d73d a7b1 f23d 29e6 1bbe
00000020: 6971 3bbd 82ab 523e 65c6 733e 76bf f3bc
00000030: 6583 41bd 8b6d d23d ebed 2d3d 21c3 44bd
00000040: 1a98 d93c c1a5 bb3c e522 22be 7c7f a33d
00000050: 1056 233e 1dd0 99bd 7766 2fbd 2a64 25be
00000060: 048b 733d a99d 2c3b 039a 1dbc e34c 31be
00000070: ada9 abbd 020e e03b cf50 77bd 907c 153c
00000080: b635 b7bd a73c aa3d 1409 7d3d cb9d 1bbe
00000090: c5c9 7abd a561 09be b655 8e3d 9ed5 c53c
000000a0: 9066 12be f2e3 a73d 97c6 863b 0f72 bcbd
000000b0: 78c7 22bd 5e9a cb3d 7890 8cbd 8641 8c3d
000000c0: cb46 00be 1b96 a73c b227 c1bd b92d 47be
000000d0: 8e75 fc3c ab51 f5bd 7702 043d 03fa e7bd
000000e0: 3644 7bbd 2b34 9dbd ad1b 1bbe a644 ce3d
000000f0: e8bb 4c3d 303b 2bbe a2b8 30bd 7404 1d3e
00000100: d288 f1bd b107 9cbd 4ac8 b63b 946d af3d
00000110: c5c2 ed3d 27cd 02be 5304 78bd ff1b fe3d
00000120: fe8e e53d b905 e3bb 2665 053d 8396 d93d
00000130: d253 963c 66d2 033e c1dd 0bbe c8c7 483d
00000140: 0e2c b73d b382 753d ed78 32bd 4060 2ebd
00000150: ab0d cd3d a7d4 67bb 9b3f aabc b5c6 00be
00000160: 86f1 c93b f030 b9bc 6bf4 9dbd bea1 f9bd
00000170: 1e0c 1f3e 7c32 27bd 231a 58bd 8295 19bd
00000180: 26c8 0abd 7bc4 97bd aff3 1e3e 6002 e73d
00000190: 6b95 053c 33b7 c1bd 65b4 eabc 92dd e0bd
000001a0: 5982 533c 70ad 6cbd cc5e 093e 8e63 dc3d
000001b0: 1f68 babc 92ef 8f3d c351 8b3d 2b8c 053e
000001c0: 5fab 033c e9ed 17be 0d51 fbbd c662 733d
000001d0: ae55 9e3d c770 ca3d 4538 96bd 0174 fdbd
000001e0: 3055 00bd 4402 28be 7e03 89bd 3e19 5d3e
000001f0: 65cc bb3c 97a5 0d3e 939b 16be 403c 57be
00000200: ef31 37be 5d98 393d b2e0 443e 8359 163d
00000210: eeaa 05be 1385 a4bd a026 c0bd 3587 163e
00000220: c663 203e 2d2c b43c 9cd6 d13d 6881 943d
00000230: 4dc8 14bd 2b89 0abd 106d 033d 6db5 18be
00000240: be69 f03c 2850 d4bd 6752 093e b077 5e3d
00000250: e7ec e9bd 7f8a 8db9 4f3c 043e 41ae 49bc
00000260: 6312 83bd 46b2 f83d cd28 1f3d 75de 9bbd
00000270: 95a1 163b 2062 e83d dca2 84bd 993b 923c
00000280: 1acd 50bb 41c0 113e b18f 803c 74bd 6d3d
00000290: 38ae 0ebe 31c8 ffbd b85f e63d 27ae 42bc
000002a0: cdbb a73d d6b3 06be f434 22bd bccc 1c3d
000002b0: f5b5 5abc 9c1d 24be 66dc b83c d274 d5bb
000002c0: a690 f13d 4038 e53c 4ead d4bd 6c50 adbd
000002d0: fafc d4bc 5421 c23c eaa0 6abe eecd e43b
000002e0: 9ea1 b1bd 9d21 113d 8b9b b7bd f477 fb3d
000002f0: 8ab5 04bd 90b7 59bd dc4e 00be e511 75bd
00000300: 4d14 d73d b300 33bd f115 b73a e1a1 673d
00000310: 4bb4 773e d3e0 3a3e 2dff a6bc 451d 9bbd
00000320: 104f 80bd 9e34 c63d bcd2 21be 1a88 163e
00000330: baf0 25bd d565 67bd e0e2 3cbe 64a0 3a3e
00000340: 4761 1dbc 883d 4b3d 18a2 bd3c 9d59 303e
00000350: d853 41be 11eb e3bc 29f2 48be 6c69 103e
00000360: 4fdb 0ebe 4f67 743d 2f73 99bd 5cdd 58bd
00000370: 3a8f 8fbd ed6e 583e 083b 353e 94dc b5bd
00000380: d8b3 94bc 9084 e33d c8a9 5c3c c07c 39bc
00000390: 5ba6 60bb 0e9e b3bd 0fb5 843c 00e4 ff3d
000003a0: 4821 793c 7c74 f0bd 2b0f a63d d2d1 26bd
000003b0: 43ba d03d bec8 d8bd cfcb 533b 32cc a2bd
000003c0: 0ca8 c8bc 6856 d2bd 80e5 37bc de28 ffbc
000003d0: 050c 863d c54c 5cbd f114 efbc 3aaa 1b3e
000003e0: c240 47bc ce34 423d e6d6 14be d266 a13d
000003f0: 9431 01be 6b89 8c3d 2a8a 4c3e 695c bcbd

conv2.bias f4 [16]
-0.040969186 -0.18800469 0.13202019 -0.016031213 0.15426819 -0.17559622 0.012610936 0.240036
-0.19263193 0.035612423 0.1138571 0.1625173 0.16008395 -0.08875615 0.011477408 0.057469454
00000000: 4ecf 27bd 4d84 40be 4d30 073e e453 83bc
00000010: 7bf8 1d3e 7fcf 33be 199e 4e3c ffcb 753e
00000020: 4e41 45be 55de 113d e92d e93d ef6a 263e
00000030: 0ced 233e c9c5 b5bd bd0b 3c3c 1765 6b3d

conv3.weight f4 [16, 16, 50, 1]
-0.024843024 -0.040159065 -0.0042118886 0.058619034 0.03902926 -0.09454248 0.080612995 -0.02398014
0.050176848 -0.110270135 -0.057246387 0.003995172 0.03288122 0.0014835995 -0.0030284985 -0.07362755
0.00063685037 -0.040922783 -0.0009669672 0.02491406 0.039940998 -0.06742377 -0.08296459 0.046928395
-0.010148461 0.08921942 0.09069569 0.0498903 -0.09649198 0.032373376 -0.044952713 -0.077743664
-0.05842502 0.010831549 -0.02270726 -0.073813476 -0.038170245 0.01059865 0.022873444 -0.028551186
0.0892467 -0.100475825 0.06668182 -0.042822707 0.057845034 -0.024526957 0.09681998 0.031546596
-0.032956827 -0.10209755 -0.0112695545 -0.0741558 0.022681369 -0.021462275 0.00021202042 -0.06863416
0.037640903 0.035080235 -0.00421423 -0.13112655 -0.08243916 0.01601156 -0.092990465 -0.031407073
0.01799361 0.09069673 0.046492454 -0.02115063 -0.042893883 0.047294863 -0.065263234 -0.03173168
-0.12228576 -0.067803964 -0.00076526386 0.04634934 -0.08048804 0.08198995 -0.0085591795 0.05533366
-0.049886033 0.046877563 -0.011889076 -0.0014504903 -0.049936794 0.034835868 -0.030838883 -0.04978349
0.11184306 0.032818522 -0.07884079 0.001988376 0.07791579 -0.026017787 -0.023602236 0.03826763
-0.035997026 -0.061219092 0.04974741 -0.045875557 -0.101339646 0.033505887 -0.021092664 0.009757499
0.079067364 0.018306172 0.059088346 0.1245566 -0.013692326 0.09546138 0.0010745933 -0.095181786
-0.06901878 0.06460939 -0.04456406 0.029317722 0.062135093 0.061802752 0.049918976 0.019071395
-0.060826074 -0.069492094 0.051857237 0.02062689 -0.03795758 0.03727566 -0.036296796 0.008454648
0.04192489 0.057660807 0.12555954 -0.0030020953 0.05515267 -0.03658074 0.0011388393 0.05199625
-0.03445005 0.008294293 0.17402022 -0.03523074 0.08507851 -0.09801069 0.02556038 0.027361864
0.047087826 0.17058101 -0.084157094 0.05352839 0.050153002 0.082133286 -0.062500134 -0.04934971
0.10089342 0.06085533 -0.02969089 0.018685501 0.10726908 0.03134661 0.030363757 0.03802869
-0.02383311 0.0048141466 0.038523618 0.061648346 -0.044918027 -0.052600477 -0.04054683 -0.022455059
-0.052066583 0.01499824 -0.06391313 0.04687698 0.102881774 -0.12058969 -0.016254859 -0.045755096
0.11540766 -0.1619508 0.059545785 0.005511244 0.027627002 0.023772025 -0.15473168 -0.02556265
0.067695774 -0.0332395 -0.023283241 0.047223624 -0.011136265 -0.063461274 -0.012358013 0.0073700715
0.099193 0.01846377 0.037895814 0.08387847 0.08350085 0.012730158 0.18878822 -0.047878735
0.025754591 0.07347234 0.06049989 -0.016363263 -0.04145225 0.03124864 0.061360117 -0.035248682
-0.0070842253 0.027292175 -0.013880636 0.0056612315 -0.10319425 0.06463909 0.013389546 0.024700878
-0.011426687 -0.12217185 -0.016862055 -0.004036197 0.03132105 0.051076744 -0.06875472 -0.019663276
-0.066605985 -0.06642342 -0.00030056655 -0.028805582 0.017957458 -0.02854301 -0.051539235 0.016878508
-0.024687555 -0.0061408062 -0.0042208866 0.055309802 -0.041717812 0.1010992 -0.07699165 0.054178275
-0.13221759 0.048007093 0.098209836 -0.06217134 -0.009289258 -0.020380862 0.060960915 0.012231625
0.15454736 -0.05036132 -0.10560633 -0.0056744567 -0.017478965 -0.04923553 -0.11533545 0.072322875
00000000: 9983 cbbc d57d 24bd e203 8abb 831a 703d
00000010: 25dd 1f3d 7d9f c1bd 6d18 a53d 0072 c4bc
00000020: 3d86 4d3d 4fd5 e1bd 307b 6abd efe9 823b
00000030: 75ae 063d 5775 c23a c679 46bb 0aca 96bd
00000040: 4ef2 263a a69e 27bd 127c 7dba 9218 cc3c
00000050: 2c99 233d 7915 8abd 57e9 a9bd fd37 403d
00000060: bb45 26bc acb8 b63d a9be b93d c559 4c3d
00000070: 969d c5bd f299 043d 5620 38bd 1238 9fbd
00000080: 134f 6fbd cf76 313c 9304 babc 852b 97bd
00000090: 6758 1cbd f6a5 2d3c 1761 bb3c 2de4 e9bc
000000a0: f9c6 b63d 45c6 cdbd 7a90 883d dd66 2fbd
000000b0: eaee 6c3d c2ec c8bc 8e49 c63d 0137 013d
000000c0: bdfd 06bd 8518 d1bd f0a3 38bc ffde 97bd
000000d0: 47ce b93c a7d1 afbc cc51 5e39 1190 8cbd
000000e0: 592d 1a3d 4bb0 0f3d 8617 8abb 0a46 06be
000000f0: ddd5 a8bd ad2a 833c c971 bebd b4a4 00bd
00000100: 5667 933c 35bf b93d df6e 3e3d 1644 adbc
00000110: 7fb1 2fbd 42b8 413d bba8 85bd 14f9 01bd
00000120: f570 fabd cedc 8abd fd9b 48ba ced8 3d3d
00000130: ead6 a4bd 59ea a73d cd3b 0cbc 8ca5 623d
00000140: 4c55 4cbd b002 403d 66ca 42bc 611e beba
00000150: 868a 4cbd 0eb0 0e3d d3a1 fcbc c6e9 4bbd
00000160: f90d e53d b76c 063d 4877 a1bd 6a4f 023b
00000170: 5092 9f3d 4123 d5bc 7a59 c1bc 85be 1c3d
00000180: 9e71 13bd dfc0 7abd f1c3 4b3d 02e8 3bbd
00000190: 298b cfbd 783d 093d 86ca acbc ebdd 1f3c
000001a0: 12ee a13d d3f6 953c 9f06 723d 8817 ff3d
000001b0: c755 60bc 4281 c33d 5ed9 8c3a abee c2bd
000001c0: b859 8dbd ee51 843d ce88 36bd b82b f03c
000001d0: 5e81 7e3d e224 7d3d d777 4c3d 9d3b 9c3c
000001e0: c324 79bd df51 8ebd 4168 543d b9f9 a83c
000001f0: 6879 1bbd 5dae 183d f3ab 14bd 5d85 0a3c
00000200: 6fb9 2b3d bd2d 6c3d ae92 003e cdbe 44bb
00000210: c4e7 613d b0d5 15bd 1b45 953a 05fa 543d
00000220: 7f1b 0dbd c9e4 073c 5b32 323e 1c4e 10bd
00000230: a43d ae3d d4b9 c8bd 0164 d13c fd25 e03c
00000240: 2adf 403d caac 2e3e 8e5a acbd 9640 5b3d
00000250: 3c6d 4d3d 7f35 a83d 1200 80bd ec22 4abd
00000260: 36a1 ce3d 7043 793d 4f3a f3bc 5612 993c
00000270: e4af db3d 4e65 003d 6abd f83c f9c3 1b3d
00000280: a83d c3bc fdbf 9d3b f1ca 1d3d fa82 7c3d
00000290: f7fb 37bd 9973 57bd 6f14 26bd acf3 b7bc
000002a0: c543 55bd 2ebb 753c e3e4 82bd 1402 403d
000002b0: aeb3 d23d baf7 f6bd e928 85bc b269 3bbd
000002c0: da5a ec3d 6ed6 25be 48e6 733d aa97 b43b
000002d0: 0652 e23c 8dbd c23c fb71 1ebe c368 d1bc
000002e0: 15a4 8a3d 2426 08bd 7fbc bebc 8f6d 413d
000002f0: e174 36bc fcf7 81bd 4379 4abc a480 f13b
00000300: b325 cb3d 5541 973c a438 1b3d 7ac8 ab3d
00000310: 7e02 ab3d 2792 503c b351 413e 7e1c 44bd
00000320: 4bfb d23c ab78 963d bcce 773d 400c 86bc
00000330: d6c9 29bd 26fd ff3c bf54 7b3d ec60 10bd
00000340: ca22 e8bb d793 df3c 9b6b 63bc da81 b93b
00000350: 8257 d3bd 8061 843d d45f 5b3c 7f59 ca3c
00000360: 0037 3bbc 3c35 fabd 4b22 8abc 1342 84bb
00000370: 804a 003d d935 513d 46cf 8cbd e114 a1bc
00000380: b868 88bd 0109 88bd 5c95 9db9 aff9 ebbc
00000390: 851b 933c 08d3 e9bc ce1a 53bd cc44 8a3c
000003a0: 8e3d cabc d138 c9bb 5d4f 8abb 888c 623d
000003b0: 4ce0 2abd 190d cf3d ccad 9dbd 0aea 5d3d
000003c0: 0c64 07be 16a3 443d 3d22 c93d 60a7 7ebd
000003d0: f931 18bc c4f5 a6bc 27b2 793d 2767 483c
000003e0: aa41 1e3e ac47 4ebd 2248 d8bd cbf0 b9bb
000003f0: 0c30 8fbc 32ab 49bd fe34 ecbd 041e 943d

conv3.bias f4 [16]
-0.16532339 -0.21888462 -0.29989913 -0.23760936 -0.17582409 -0.35202467 -0.44721645 -0.092209585
-0.11407499 -0.024409117 -0.08001296 -0.29099914 -0.27445418 0.12788267 -0.05479227 -0.23931915
00000000: 894a 29be 4a23 60be 618c 99be de4f 73be
00000010: 3b0b 34be 943c b4be 8ef9 e4be 61d8 bcbd
00000020: 26a0 e9bd a1f5 c7bc d6dd a3bd d7fd 94be
00000030: 4285 8cbe adf3 023e dc6d 60bd 1410 75be

dense1.weight f4 [100, 2288]
0.046076972 -0.08400296 -0.044503607 -0.024858378 -0.040279254 -0.004553985 0.06303026 0.029851023
0.14316066 0.08295256 0.08180142 0.009549298 0.055499412 0.06579395 -0.06198835 0.084948234
0.04057128 0.010500834 0.04928257 -0.02943348 0.12036812 0.05887702 -0.09502384 0.007245389
-0.080591954 0.08529419 -0.052720044 -0.03642827 0.025971765 0.048161253 -0.067901246 0.0758685
0.07881551 0.01880801 0.1574242 0.017104717 -0.00048784752 -0.07131374 -0.05274767 0.02025958
0.09585652 0.039471272 0.021173686 0.02903802 0.024489516 -0.11537401 0.025431233 -0.033582855
-0.15331374 0.011292028 0.064399615 0.029508501 0.016382746 0.07954109 -0.010274973 0.046180934
-0.07053061 -0.033298206 0.15477134 -0.06275981 -0.05606629 0.03720707 0.12611671 -0.015360783
0.07263939 0.08882336 0.0073114014 0.072153226 0.018033901 0.033087973 -0.008159378 -0.038916394
-0.021788694 0.13781385 -0.0006367724 -0.030963616 0.034822833 -0.05839471 0.023066074 0.011150783
0.11192437 0.011695394 -0.009685693 0.045612957 -0.056205064 0.09747945 -0.019259492 -0.014236666
0.1088463 -0.0015785106 -0.063674465 -0.16471456 -0.0020015452 -0.025501985 -0.1530673 0.0007199527
0.04794694 -0.07160287 -0.107649565 0.03627888 0.051013395 -0.027536329 0.07103204 0.12482956
0.05045029 0.0019097779 -0.004180727 0.09881492 0.071273774 0.019659288 0.0447807 -0.016184332
-0.05683969 0.04364026 0.059720937 -0.011470368 0.0316345 0.0069635645 0.061989266 -0.022171056
0.06919375 0.033339106 0.10125817 -0.07496404 -0.03532679 -0.075931884 0.055708136 -0.0070072673
-0.07979053 -0.0044621485 -0.048262484 -0.057770137 0.07567912 0.0020981822 -0.059497453 -0.056736466
0.006827171 -0.11566388 -0.103874035 -0.02411178 -0.09443943 -0.048784338 -0.0327315 0.13607582
0.013383598 0.017738583 -0.06925274 0.031671472 -0.006536084 0.01568195 0.022526776 -0.039627686
0.024316892 -0.00023459412 0.020935707 -0.012429383 -0.15284652 -0.036805905 -0.075698934 -0.088465154
0.016576765 -0.071297385 0.020292541 -0.043101568 -0.11247026 -0.05702297 0.11393866 0.037696473
0.027580893 -0.12153439 -0.044693567 0.06205401 0.048063863 0.026095552 0.04414893 0.04907313
0.1604767 0.020602752 -0.023917556 -0.042902105 -0.07641783 -0.045218214 -0.05769222 -0.05178358
-0.04465166 0.13323772 -0.08827971 -0.020745285 -0.08245313 0.01895226 0.07199987 -0.028443823
-0.015460482 -0.050379913 -0.015081004 -0.00967012 0.027030073 0.12520586 -0.09286174 0.042872492
0.02700713 0.09433496 -0.120033 -0.075901285 -0.009569603 0.018135674 -0.016326305 0.009066059
-0.017605823 0.08439545 -0.062208377 0.06758433 -0.026612459 -0.0049004955 0.050699983 0.08502556
-0.046865113 -0.009071477 0.04185027 -0.10418283 -0.024343694 -0.07156691 -0.026727853 0.080536135
0.036039244 0.046714373 0.00853922 -0.001889149 0.089643136 0.051223304 0.052431013 -0.061268825
-0.060892303 -0.05112492 0.02505315 0.005968968 -0.07566674 0.064300664 0.005767646 0.0033892707
-0.01672135 -0.015385523 0.081217006 -0.03388134 -0.048331726 0.05898087 0.06655681 -0.04173427
0.013826657 -0.13791494 0.076593935 0.042134307 0.058759663 -0.033016935 -0.047139462 -0.04103287
00000000: 35bb 3c3d be09 acbd 6a49 36bd cca3 cbbc
00000010: dcfb 24bd 9839 95bb 0216 813d 228a f43c
00000020: b598 123e 08e3 a93d 8187 a73d a974 1c3c
00000030: 5a53 633d fabe 863d 7fe7 7dbd 57f9 ad3d
00000040: 122e 263d b10b 2c3c 85dc 493d 7b1e f1bc
00000050: 9083 f63d 0829 713d dc9b c2bd ba6a ed3b
00000060: 650d a5bd b8ae ae3d f9f0 57bd cf35 15bd
00000070: bdc2 d43c bc44 453d cf0f 8bbd f260 9b3d
00000080: 076a a13d 4113 9a3c cf33 213e 311f 8c3c
00000090: c9c5 ffb9 f00c 92bd f10d 58bd 6bf7 a53c
000000a0: 6c50 c43d a1ac 213d 7074 ad3c 24e1 ed3c
000000b0: 3d9e c83c 3549 ecbd 2955 d03c 2d8e 09bd
000000c0: 47fe 1cbe 3302 393c f2e3 833d d0bb f13c
000000d0: 1c35 863c 70e6 a23d 5c58 28bc 3828 3d3d
000000e0: 5a72 90bd b363 08bd 617c 1e3e 3788 80bd
000000f0: c4a5 65bd 7166 183d bd24 013e cbab 7bbc
00000100: f6c3 943d 06e9 b53d 7b94 ef3b 12c5 933d
00000110: d5bb 933c 4187 073d e9ae 05bc cc66 1fbd
00000120: 347e b2bc 131f 0d3e 13ed 26ba 69a7 fdbc
00000130: 63a2 0e3d 4b2f 6fbd 10f5 bc3c c6b1 363c
00000140: 9b38 e53d 0a9e 3f3c beb0 1ebc a7d4 3a3d
00000150: 4837 66bd 4ea3 c73d 15c6 9dbc e840 69bc
00000160: cfea de3d 07e6 ceba c267 82bd efaa 28be
00000170: 5b2c 03bb 8ae9 d0bc adbd 1cbe 35bb 3c3a
00000180: 0364 443d 87a4 92bd 6077 dcbd 2a99 143d
00000190: 6cf3 503d de93 e1bc 3f79 913d a4a6 ff3d
000001a0: f7a4 4e3d 8351 fa3a 7bfe 88bb 7a5f ca3d
000001b0: fcf7 913d 840c a13c f86b 373d 0195 84bc
000001c0: bcd0 68bd 21c0 323d f19d 743d 36ee 3bbc
000001d0: 2d93 013d 9d2e e43b 75e8 7d3d 13a0 b5bc
000001e0: 74b5 8d3d 968e 083d 7260 cf3d bf86 99bd
000001f0: d3b2 10bd 2d82 9bbd 372e 643d 389d e5bb
00000200: 3869 a3bd 3737 92bb e2ae 45bd 61a0 6cbd
00000210: a8fd 9a3d a881 093b 9ab3 73bd 7f64 68bd
00000220: 76b6 df3b 2fe1 ecbd e9bb d4bd 1186 c5bc
00000230: 7669 c1bd 16d2 47bd 7711 06bd 7657 0b3e
00000240: e146 5b3c 8150 913c 61d4 8dbd f2b9 013d
00000250: a62c d6bb 6f77 803c 138a b83c a450 22bd
00000260: 3834 c73c 61fd 75b9 5c81 ab3c 9ca4 4bbc
00000270: cc83 1cbe cac1 16bd 0b08 9bbd 382d b5bd
00000280: ffcb 873c 5d04 92bd 8b3c a63c 458b 30bd
00000290: cf56 e6bd eb90 69bd ac58 e93d 9e67 1a3d
000002a0: 53f1 e13c 06e7 f8bd 9a10 37bd 582c 7e3d
000002b0: 9dde 443d 57c6 d53c 82d5 343d e800 493d
000002c0: 0154 243e 1ac7 a83c c0ee c3bc 1eba 2fbd
000002d0: f480 9cbd bc36 39bd ad4e 6cbd 051b 54bd
000002e0: a9e4 36bd 786f 083e fecb b4bd 04f2 a9bc
000002f0: 30dd a8bd c541 9b3c ab74 933d 0503 e9bc
00000300: f64d 7dbc 2b5b 4ebd 5116 77bc 6c6f 1ebc
00000310: 2c6e dd3c f735 003e 4c2e bebd 119b 2f3d
00000320: 0f3e dd3c b032 c13d ddd3 f5bd 2272 9bbd
00000330: d3c9 1cbc 4491 943c bebe 85bc cf89 143c
00000340: 163a 90bc 86d7 ac3d 36ce 7ebd a769 8a3d
00000350: 5f02 dabc 5694 a0bb c9aa 4f3d e121 ae3d
00000360: a2f5 3fbd 88a0 14bc 306b 2b3d cf5d d5bd
00000370: 6d6c c7bc ac91 92bd 5ff4 dabc 21f0 a43d
00000380: e39d 133d 9257 3f3d 16e8 0b3c 529d f7ba
00000390: d296 b73d 87cf 513d e7c1 563d 05f5 7abd
000003a0: 356a 79bd 5d68 51bd 433c cd3c 5597 c33b
000003b0: 2af7 9abd 11b0 833d 85fe bc3b 871e 5e3b
000003c0: 36fb 88bc 9013 7cbc 1a55 a63d 29c7 0abd
000003d0: 7df7 45bd ed95 713d f04e 883d 8ef1 2abd
000003e0: 3489 623c 9339 0dbe 48dd 9c3d 0695 2c3d
000003f0: f9ad 703d c43c 07bd 4f15 41bd 1512 28bd

dense1.bias f4 [100]
-8.5141474e-21 8.1959735e-18 -1.7962306e-12 8.7372726e-08 -8.3223785e-27 1.9643534e-19 -2.2514662e-19 -1.4908573e-09
-4.3728896e-16 1.2040996e-27 -2.569926e-21 1.3929896e-13 6.2344e-41 1.9900404e-15 -8.7886765e-09 9.932464e-13
-3.0725098e-16 -2.6495483e-22 -7.0115375e-21 -9.3765695e-18 -1.4253072e-11 -3.5752564e-11 -2.242765e-19 2.4714774e-19
-1.6225464e-17 -1.8662652e-28 -2.4819325e-05 2.8603395e-09 5.6803655e-18 -2.4721926e-27 2.2478663e-09 -1.4314469e-13
9.657543e-19 -2.8178427e-18 -7.645962e-20 4.608082e-16 7.044572e-13 8.814457e-30 -1.2312969e-17 -4.499199e-12
7.895036e-12 -6.996227e-21 5.576806e-23 1.8667419e-16 -6.848259e-26 -2.422451e-12 2.9774616e-18 -2.4771165e-34
-9.50857e-19 7.508788e-37 1.2682291e-09 -9.067106e-13 1.0174193e-19 -4.1054454e-06 7.87181e-17 -1.2760382e-17
-1.31935945e-23 -3.496722e-28 -3.8567976e-19 2.8323344e-08 -1.1011755e-22 -7.03786e-20 2.7962e-41 -8.2352725e-16
9.707321e-18 4.283286e-28 -1.4740649e-23 -1.888382e-19 3.968061e-12 1.40263e-06 -2.1687495e-07 2.3377446e-33
-4.9970283e-10 5.288434e-22 -3.606922e-18 -3.3944303e-20 -1.4755197e-11 1.6030774e-23 3.3078e-41 -2.8783116e-17
-1.2180509e-11 6.336356e-07 8.151806e-20 -3.5245346e-06 1.6586587e-21 -3.0070378e-14 -4.7840387e-15 -3.631839e-11
-5.0273226e-09 5.89263e-18 5.562374e-07 -1.8796872e-08 8.274808e-37 -5.157822e-13 -2.1123823e-20 -2.0827962e-34
3.4064564e-19 -8.070331e-15 -8.537442e-06 2.95584e-39
00000000: e4d3 209e 6430 1723 07cc fcab aaa1 bb33
00000010: 79d7 2494 f0e8 6720 32e7 84a0 e1e6 ccb0
00000020: 7614 fca5 15cc be12 992d 429d 31d6 1c2a
00000030: caad 0000 c465 0f27 02fd 16b2 79c9 8b2b
00000040: 3e1e b1a5 c627 a09b b771 049e 99f7 2ca3
00000050: 21be 7aad cf3d 1dae b563 84a0 e9e3 9120
00000060: 4ba7 95a3 c593 6c91 1833 d0b7 a08f 4431
00000070: 8991 d122 06de 4393 e278 1a31 a62a 21aa
00000080: 2a85 8e21 8beb 4fa2 0189 b49f a5d1 0426
00000090: 7e49 462b 47c7 320f 5a22 63a3 2f4d 9eac
000000a0: 15e4 0a2d ae27 049e c2d6 861a 7f38 5725
000000b0: 008e a995 ff76 2aac a9b2 5b22 f4a1 a487
000000c0: 5d52 8ca1 c582 7f03 d84d ae30 6237 7fab
000000d0: 393b f01f 82c1 89b6 f782 b524 3363 6ba3
000000e0: 8433 7f99 8fa1 dd91 47aa e3a0 b14b f332
000000f0: bb1f 059b 412d a69f f24d 0000 965d 6da6
00000100: 8711 3323 25be 0712 1490 8e99 d8f0 5ea0
00000110: 1e9d 8b2c 0042 bc35 22de 68b4 5436 4209
00000120: 765b 09b0 47d5 1f1c 6a12 85a2 254c 209f
00000130: c0c9 81ad 460a 9b19 355c 0000 1bbd 04a4
00000140: 2348 56ad 1b17 2a35 a57a c01f 0b87 6cb6
00000150: 40a6 fa1c c96c 07a9 f85c aca7 dfba 1fae
00000160: ccbc acb1 5166 d922 5850 1535 c276 a1b2
00000170: dfc9 8c03 062e 11ab 4582 c79e f16c 8a87
00000180: ea14 c920 d561 11a8 093c 0fb7 ae2f 2000

batchnorm1.weight f4 [16]
0.9660676 0.9222034 0.9732547 1.0110408 0.9991936 0.9275574 0.88025767 0.9968892
1.0058055 0.9240642 1.0321416 0.97447073 1.0077945 1.0162733 0.9957136 1.0092739
00000000: 3550 773f 8615 6c3f 3827 793f c969 813f
00000010: 27cb 7f3f 6774 6d3f 9158 613f 2134 7f3f
00000020: 3cbe 803f 798f 6c3f 371d 843f ea76 793f
00000030: 69ff 803f 3e15 823f 16e7 7e3f e32f 813f

batchnorm1.bias f4 [16]
0.026078835 0.3654678 -0.262293 -0.08826641 -0.06672339 0.06642559 0.1498423 0.03300118
0.04599091 0.53822047 0.17181252 0.35201424 0.11340255 -0.16541323 0.035268027 -0.05443913
00000000: 48a3 d53c 981e bb3e 454b 86be 05c5 b4bd
00000010: 46a6 88bd 240a 883d 4370 193e 3f2c 073d
00000020: f760 3c3d d1c8 093f 9fef 2f3e 363b b43e
00000030: 993f e83d 1662 29be 3575 103d 91fb 5ebd

batchnorm1.running_mean f4 [16]
0.22102591 0.12731893 0.4664111 0.26218235 0.44024763 0.1341665 0.35222033 0.6321572
0.2121437 0.41812924 0.48895577 0.59109885 0.48430905 0.15443687 0.47508314 0.43788853
00000000: 9e54 623e e55f 023e 70cd ee3e c43c 863e
00000010: 2368 e13e f162 093e 3956 b43e 0ed5 213f
00000020: 333c 593e 0915 d63e 6958 fa3e 4152 173f
00000030: 5bf7 f73e b324 1e3e 193e f33e ed32 e03e

batchnorm1.running_var f4 [16]
0.035830252 0.029241689 0.041018147 0.03299995 0.026236862 0.023041628 0.17201526 0.07127093
0.04903426 0.07476794 0.0642272 0.07635887 0.04363165 0.014473231 0.088756524 0.0875849
00000000: bec2 123d 448c ef3c a502 283d f52a 073d
00000010: b0ee d63c ccc1 bc3c c524 303e 7ef6 913d
00000020: 26d8 483d ef1f 993d 8d89 833d 0a62 9c3d
00000030: 1ab7 323d 2121 6d3c fbc5 b53d b65f b33d

batchnorm2.weight f4 [16]
1.0015951 1.0010678 0.96838826 1.0603192 1.0674366 0.99841714 0.9028144 1.0648494
1.0116353 0.9771086 1.0598619 0.98114616 0.9505138 1.033697 1.0731075 1.0281241
00000000: 4534 803f fd22 803f 4be8 773f 8ab8 873f
00000010: c3a1 883f 4498 7f3f d81e 673f fc4c 883f
00000020: 447d 813f ca23 7a3f 8ea9 873f 652c 7b3f
00000030: df54 733f 2f50 843f 965b 893f 9299 833f

batchnorm2.bias f4 [16]
0.006759289 -0.017231816 0.06366456 0.030707484 0.028760506 0.018533837 0.079776354 0.024398891
-0.016154971 0.052448716 0.029724337 0.037522115 0.16263652 0.03237749 0.05046971 -0.0393854
00000000: 077d dd3b bd29 8dbc 9162 823d 438e fb3c
00000010: 279b eb3c 46d4 973c c961 a33d 2fe0 c73c
00000020: 6e57 84bc 77d4 563d 7480 f33c cab0 193d
00000030: 308a 263e 429e 043d 54b9 4e3d 9652 21bd

batchnorm2.running_mean f4 [16]
1.3834023 0.84266365 0.60631484 0.6125713 0.84803873 1.1879971 0.35005838 0.54422873
1.0221906 0.6994721 0.9847757 1.0837969 0.5955763 1.1210408 1.6137627 1.2804475
00000000: 5413 b13f ceb8 573f 7337 1b3f 79d1 1c3f
00000010: 1119 593f 4a10 983f da3a b33e 9352 0b3f
00000020: 24d7 823f 9b10 333f 431a 7c3f dbb9 8a3f
00000030: b077 183f 447e 8f3f c78f ce3f b4e5 a33f

batchnorm2.running_var f4 [16]
0.92703944 0.76268965 0.7850777 0.61089855 0.71808946 0.9801925 0.47543526 0.47267824
0.6692086 0.6517529 0.8544845 0.9038279 1.0432961 0.87952584 1.128738 1.0488564
00000000: 7552 6d3f a13f 433f dafa 483f d963 1c3f
00000010: b6d4 373f e5ed 7a3f 406c f33e e202 f23e
00000020: 4151 2b3f 47d9 263f 7fbf 5a3f 4461 673f
00000030: ba8a 853f 9b28 613f 7d7a 903f ed40 863f
