models/RP_stagernet.pth (torch_old, 973958 bytes, 16 tensors)

conv1.weight f4 [11, 1, 1, 11]
0	0x3e58c90c	0.21170443
1	0x3e6cff9d	0.23144384
2	0x3e6718e9	0.22568096
3	0xbe5c5195	-0.21515496
4	0xbdc8aa23	-0.09798076
5	0x3e8f5351	0.27993253
6	0xbdea5608	-0.114421904
7	0x3e3dc562	0.18532327
8	0xbddcd660	-0.10783076
9	0xbe29cd3d	-0.16582198
10	0x3e2a4cfe	0.16630933
11	0x3e0624d1	0.13099982
12	0x3e87cf41	0.2652531
13	0xbd984a5e	-0.074360594
14	0x3e66b0ca	0.22528377
15	0x3e7851d2	0.24249962
16	0xbe7377b5	-0.23776133
17	0x3d3e6f13	0.046492647
18	0xbe3a2a48	-0.18180192
19	0x3e0404ac	0.12892407
20	0xbea02d1f	-0.31284425
21	0xbe98ba72	-0.29829746
22	0xbd83ace8	-0.064294636
23	0x3e1e6221	0.1546712
24	0xbd38112c	-0.04493825
25	0x3e51a056	0.2047132
26	0x3dc0ffe1	0.09423805
27	0xbdc2fc39	-0.09520764
28	0x3e8e692f	0.27814624
29	0xbce5a158	-0.028031036
30	0xbe3077c2	-0.17233184
31	0xbdb30667	-0.087414555
32	0x3ead2b5d	0.33822146
33	0x3dff8fc4	0.12478593
34	0xbe100bb2	-0.14066961
35	0x3e4d585c	0.20053238
36	0x3e557c1d	0.20848127
37	0x3e2890b6	0.16461453
38	0xbe81b3b8	-0.25332427
39	0x3e9ac633	0.3022934
40	0xbeb5594c	-0.3541969
41	0xbe28bc6c	-0.16478127
42	0xbe508c6d	-0.20366068
43	0x3d43c96a	0.047799505
44	0xbe2e43a1	-0.17017986
45	0x3e7a7653	0.244592
46	0x3d9eb4aa	0.07749303
47	0xbe069b70	-0.13145232
48	0x3e866747	0.2625067
49	0xbe2da121	-0.16955997
50	0xbe79ff8e	-0.24413893
51	0xbe2c9d42	-0.16856864
52	0xbe6aff79	-0.22949018
53	0xbe8f0b08	-0.27938104
54	0x3e952b66	0.29134673
55	0xbe95e62a	-0.29277164
56	0x3ec6d063	0.3883086
57	0x3e869d85	0.26292053
58	0x3e86b46e	0.26309532
59	0xbdb25500	-0.08707619
60	0x3d0db1bf	0.03459334
61	0x3cdafcac	0.026731811
62	0xbe8c1912	-0.27362877
63	0xbe575e4b	-0.21032064
64	0xbe307368	-0.17231524
65	0x3d961b57	0.073294334
66	0x3e0ab444	0.13545328
67	0x3e0feca9	0.14055122
68	0x3e63b944	0.22238642
69	0xbe824712	-0.25444847
70	0x3c3851af	0.011249944
71	0x3e77a8d4	0.24185497
72	0x3c825800	0.015911102
73	0x3db8aef8	0.09017748
74	0x3cef0860	0.029178798
75	0x3ce5483c	0.027988546
76	0x3c1848b1	0.009294675
77	0xbe8610f0	-0.26184797
78	0x3d0af0e2	0.03392113
79	0x3ea2d4e1	0.3180304
80	0xbd84e48c	-0.06488904
81	0x3e3ef3a5	0.1864763
82	0x3e4cb784	0.1999188
83	0xbe5c20c5	-0.21496876
84	0x3e20e530	0.15712428
85	0x3d8b6268	0.06805879
86	0x3e144b85	0.14481933
87	0x3d349181	0.044084076
88	0xbe2e3c96	-0.17015299
89	0x3d2a4105	0.041565914
90	0xbe309dd4	-0.17247707
91	0xbe886e06	-0.2664644
92	0xbe73c183	-0.23804288
93	0xbe16419b	-0.14673464
94	0x3e574529	0.21022476
95	0x3e6f6bdc	0.23380989
96	0x3d985fa1	0.07440115
97	0xbd6cd051	-0.057815854
98	0x3e8ad56c	0.27115953
99	0xbeacb34b	-0.3373054
100	0xbea037c4	-0.31292546
101	0xbe857d3a	-0.26072103
102	0x3dfa2c1a	0.12215443
103	0xbdacb235	-0.08432428
104	0x3d9f1757	0.077681236
105	0x3d0cde3b	0.034391623
106	0xbe19f63e	-0.1503534
107	0x3e81a0fe	0.2531814
108	0xbd7b5ecd	-0.061369706
109	0x3e788308	0.24268734
110	0xbe73e280	-0.23816872
111	0xbe59e5a5	-0.21279009
112	0x3ea48290	0.3213086
113	0x3e159c06	0.146103
114	0xbcc863af	-0.024461595
115	0xbc9dba8e	-0.019253995
116	0x3e1836f7	0.14864717
117	0x3e57d376	0.2107676
118	0x3ddf3fa8	0.10900813
119	0x3ddf7476	0.10910885
120	0x3e2984c1	0.16554548

conv1.bias f4 [11]
0	0x3e0ede5c	0.13952011
1	0xbdab8c72	-0.08376397
2	0xbd688eaa	-0.05677668
3	0xbdc43860	-0.09581065
4	0x3d36ab0f	0.044596728
5	0xbd9250cf	-0.07144319
6	0xbe13a812	-0.14419582
7	0x3e00735d	0.12544008
8	0xbd0eb887	-0.034843948
9	0x3da3ee4d	0.08004437
10	0x3d830f32	0.06399383

conv2.weight f4 [16, 1, 50, 1]
0	0xbcaea461	-0.021318616
1	0x3cb00b6b	0.02148982
2	0xbe1e4eb3	-0.15459709
3	0x3ba025a8	0.0048873015
4	0x3c53a5d9	0.012917959
5	0x3d09178e	0.03346973
6	0xbc80ebfd	-0.015737528
7	0x3d28b125	0.041184563
8	0xbdabd9b3	-0.08391132
9	0x3e10fb55	0.14158376
10	0xbd36cd20	-0.044629216
11	0x3c7ec83b	0.015550668
12	0xbdc18f0d	-0.09451113
13	0xbe00a35f	-0.12562321
14	0x3b5f541c	0.0034077233
15	0xbd0f637e	-0.035006993
16	0xbd7026c1	-0.05863071
17	0xbb8167e0	-0.0039491504
18	0xbe31fafa	-0.17380896
19	0xbd237552	-0.039906807
20	0xbd825a0e	-0.06364833
21	0xbd47eab7	-0.048807826
22	0x3e0fbc3d	0.14036651
23	0xbe16bcef	-0.1472051
24	0x3d085ad1	0.033289734
25	0x3dfe6f7c	0.12423608
26	0xbd3128d8	-0.043251842
27	0x3e1ab1ea	0.15106931
28	0x3d5470ca	0.051865377
29	0x3de2cfbe	0.1107478
30	0xbd7a2b4c	-0.061076447
31	0xbd48f193	-0.049058508
32	0x3c86a042	0.016433839
33	0xbcd5c4a6	-0.026094746
34	0xbd489e61	-0.048979167
35	0xbbb403a1	-0.0054935967
36	0xb9892b56	-0.00026162964
37	0xbe048978	-0.12943065
38	0xbe0e7aae	-0.13913986
39	0x3c216183	0.009849909
40	0x3bd5ae63	0.0065210327
41	0x3b5d6a5e	0.0033785324
42	0x3dfa2459	0.12213964
43	0x3d07c156	0.033143364
44	0x3d3de2fb	0.046359044
45	0xbd4cb191	-0.049974028
46	0x3da5cd37	0.08095782
47	0x3e16f739	0.14742745
48	0x3ca666a0	0.020312607
49	0x3dc3b06d	0.09555135
50	0xbbb127e5	-0.005406367
51	0x3d450b11	0.048106257
52	0x3e36ab19	0.17838706
53	0x3e10d30d	0.1414301
54	0xbc61b780	-0.01377666
55	0x3c920ca8	0.0178283
56	0x3e12eb53	0.14347582
57	0x3cdc25c6	0.02687348
58	0x3d2cec06	0.042217277
59	0x3d450a84	0.04810573
60	0xbda706a2	-0.08155562
61	0xbb52a88a	-0.0032143914
62	0xbde4237f	-0.11139583
63	0xbdd369ac	-0.1032289
64	0x3d9eeda9	0.07760174
65	0x3d6b584f	0.057457265
66	0x3c5fae40	0.013652384
67	0xbc33b27e	-0.010967849
68	0xbd9fec0f	-0.078086965
69	0xbdbf07fa	-0.09327693
70	0x3d65e298	0.0561243
71	0xbaea52b4	-0.0017877431
72	0x3cad24f1	0.02113578
73	0x3cea7f97	0.028625293
74	0xbdcd2514	-0.10016838
75	0xbe5ae326	-0.21375713
76	0xbd42c6d5	-0.047552902
77	0xbe140aa7	-0.14457189
78	0x3d6d6a65	0.057962794
79	0x3dd6d40c	0.104896635
80	0xbd4486c1	-0.047980074
81	0xbd22dc80	-0.039761066
82	0xbcfde800	-0.030994415
83	0xbd1a3734	-0.037650302
84	0x3d92a429	0.07160217
85	0x3e2853a9	0.16438164
86	0x3d39e2c1	0.045382265
87	0xbd06e51a	-0.032933332
88	0x3db8cd1b	0.09023496
89	0xbc9c0286	-0.019044172
90	0x3db3fbc9	0.087882586
91	0xbdf0511a	-0.11734219
92	0xbe1d7886	-0.15378007
93	0xbe2fd7b2	-0.17172125
94	0xbe155a87	-0.14585315
95	0xbd023e6f	-0.031797823
96	0xbdb974c2	-0.09055473
97	0x3d09b5ad	0.033620525
98	0xbb489736	-0.0030607707
99	0xbdbb0a25	-0.09132794
100	0xbd940974	-0.072283655
101	0x3d18a8d9	0.0372704
102	0x3e09034d	0.13380165
103	0xbce41596	-0.027842324
104	0x3d356147	0.044282224
105	0x3bd46d7a	0.006482777
106	0xbe174081	-0.147707
107	0xbdfe75bb	-0.12424799
108	0xbde1a185	-0.110171355
109	0xbd7f4b2c	-0.06232755
110	0xbd47f266	-0.048815154
111	0x3dc62116	0.096742794
112	0x3d0ee908	0.034890205
113	0xbdf7693a	-0.12080617
114	0x3c1901ef	0.00933884
115	0x3dc45c1d	0.09587882
116	0xbb53d7f2	-0.0032324758
117	0x3dab53dc	0.08365604
118	0xbd4b998e	-0.049706988
119	0xbcb9df7f	-0.022689579
120	0x3d9f54a0	0.07779813
121	0x3da01d94	0.078181416
122	0x3da4c1c2	0.08044769
123	0x3d9b6b24	0.07588795
124	0x3bed5d7c	0.00724381
125	0x3e0a405b	0.13501112
126	0x3dd39047	0.10330253
127	0x3c9c4a73	0.019078469
128	0x3d78bb1f	0.060725328
129	0xbddf7d68	-0.10912591
130	0x3d62967e	0.0553193
131	0x3cdb81cc	0.02679529
132	0xbe15febd	-0.14647956
133	0xbde32d7f	-0.11092662
134	0x3cb00c97	0.021490378
135	0xbe042a09	-0.1290666
136	0x3c192fe0	0.009349793
137	0x3c9ae20d	0.018906618
138	0x3e173824	0.1476751
139	0x3d0eb9b3	0.034845065
140	0x3bfc4e9f	0.007699802
141	0x3e02a868	0.12759554
142	0x3d8deb64	0.06929663
143	0x3d71e25c	0.059053764
144	0x3e0fd2a3	0.14045195
145	0xbdbdca75	-0.09267131
146	0xbd7eba72	-0.062189527
147	0xbd0e6004	-0.034759536
148	0xbe332e14	-0.17498046
149	0xbe088e3f	-0.13335513
150	0x3b8e0c4b	0.0043349615
151	0xbd4c6737	-0.04990312
152	0xbe1019f1	-0.14072396
153	0x3d69678b	0.056983512
154	0xbccf1754	-0.025279678
155	0xbdc12422	-0.0943072
156	0xbd486fe7	-0.048934843
157	0x3ceff086	0.029289495
158	0xbdd4a274	-0.10382548
159	0x3de50bbf	0.11183881
160	0xbba63557	-0.0050722766
161	0xbd27bdd4	-0.04095252
162	0x3d64e6d6	0.055884205
163	0x3e57744a	0.21040455
164	0xbda95963	-0.08269002
165	0xbd975f82	-0.073912635
166	0x3e0b7493	0.13618688
167	0x3d931cee	0.07183252
168	0xbddb8fd5	-0.10720793
169	0xbccc3134	-0.024925806
170	0x3e155218	0.14582098
171	0x3daff118	0.08590907
172	0xbe00fc63	-0.12596278
173	0xbc635dda	-0.013877356
174	0x3d2bb18c	0.04191737
175	0xbc25281e	-0.010080365
176	0x3c366cf8	0.011134379
177	0x3e0ff070	0.14056563
178	0xbd2875b5	-0.04112788
179	0x3c068d58	0.00821241
180	0xbd09b19e	-0.033616655
181	0x3d7fed52	0.062482186
182	0xbcbcf4ac	-0.023065887
183	0xbdb52204	-0.088443786
184	0xbda44d7d	-0.08022592
185	0x3ca0542c	0.019571386
186	0xbdf727cb	-0.12068137
187	0x3de3cb09	0.1112271
188	0x3ceabd55	0.028654734
189	0xbd14f601	-0.03636742
190	0xbdf33323	-0.11874988
191	0xbc15caf1	-0.009142623
192	0x3e00a76d	0.12563868
193	0x3dc96f7b	0.09835716
194	0xbdad0aa2	-0.08449294
195	0xbe059851	-0.13046385
196	0xbcd07684	-0.025447138
197	0x3d2a36c4	0.041556135
198	0x3cf12ab1	0.029439302
199	0xbdea0fb8	-0.11428779
200	0xbdcc9b9d	-0.099906184
201	0xbb8aa829	-0.004231472
202	0x3d834ec8	0.06411511
203	0xbc6079bf	-0.0137009015
204	0x3d4cef52	0.05003292
205	0xbdc6208a	-0.09674175
206	0x3cccac1d	0.024984414
207	0x3bb0fa78	0.005400952
208	0x3d4e381b	0.050346475
209	0xbdca63ca	-0.098823145
210	0x3d39875c	0.045295104
211	0x3e01f20b	0.12689988
212	0x3ce028e7	0.027363254
213	0x3d9e7e28	0.07738906
214	0xbdd51134	-0.10403672
215	0x3d81d59f	0.06339573
216	0x3ceef4f0	0.02916953
217	0x3cf9b544	0.030481942
218	0xbde70da8	-0.112819016
219	0x3e2dc39e	0.16969153
220	0x3dc66fc8	0.09689289
221	0x3de8b8ce	0.11363374
222	0x3daf7451	0.085671075
223	0xbe3046bd	-0.17214485
224	0xbe0c2260	-0.13684988
225	0xbe290990	-0.16507554
226	0x3d99fef1	0.07519329
227	0x3cdfdd08	0.027327076
228	0x3da6d647	0.08146339
229	0x3dad9484	0.08475593
230	0xbcfedee5	-0.031112144
231	0xbdcee877	-0.10102933
232	0x3d70da1c	0.058801755
233	0xbe1be53d	-0.15224166
234	0xbe06485e	-0.13113543
235	0x3d211705	0.039328594
236	0xbdef916a	-0.116976574
237	0x3dc87bf5	0.09789268
238	0xbc2c1142	-0.010502161
239	0xbd896f9a	-0.067107394
240	0x3d9e435a	0.0772769
241	0x3d6e9892	0.05825097
242	0xbdbe5a03	-0.09294512
243	0x3d5016f4	0.05080314
244	0xbe0b5550	-0.13606763
245	0x3d17cc70	0.0370602
246	0x3e170a0a	0.14749923
247	0x3d1c98b4	0.038231567
248	0x3dc984d5	0.09839789
249	0x3cf850bc	0.030311935
250	0x3e065ecc	0.131221
251	0xbdf15b2d	-0.117849685
252	0x3dd2b610	0.10288632
253	0xbd8edf48	-0.06976181
254	0xbd5aaa59	-0.053385112
255	0xbd137c4f	-0.03600722

conv2.bias f4 [16]
0	0x3de1d8b7	0.11027663
1	0x3dfca2ef	0.123357646
2	0x3d9c8b84	0.07643798
3	0xbe213c7a	-0.15745726
4	0x3c4ec0cd	0.0126192095
5	0xbda1a23b	-0.07892271
6	0x3bfec27e	0.00777465
7	0x3d97b0b1	0.07406748
8	0xbd9699c7	-0.073535495
9	0xbd732d5b	-0.059369426
10	0x3d98b407	0.074562125
11	0xbb2e72f2	-0.0026618806
12	0xbe2a16dd	-0.16610284
13	0xbd7369cd	-0.05942707
14	0xbcd46275	-0.025925854
15	0xbdb4a6c8	-0.088208735

conv3.weight f4 [16, 16, 50, 1]
0	0xbd044d84	-0.032300487
1	0xbd4fcfe5	-0.050735373
2	0xbd5d2692	-0.05399186
3	0xbd7e11ab	-0.06202857
4	0xbd690020	-0.056884885
5	0xbd213304	-0.039355293
6	0x3d56f58f	0.052480277
7	0xbd199310	-0.037493765
8	0x3ce0ddd5	0.027449528
9	0xbc75cbf9	-0.015002244
10	0x3d4d72ac	0.050158188
11	0x3b7ff6c9	0.0039057008
12	0xbda34f92	-0.07974161
13	0xbc466f6e	-0.012111528
14	0xbcc1c7ea	-0.023654897
15	0xbcac5946	-0.021038663
16	0xbcd90e09	-0.02649595
17	0xbde53fac	-0.11193785
18	0xbd85d9c3	-0.065356754
19	0xbd64097d	-0.05567311
20	0xbbe4d81d	-0.0069837705
21	0xbcb9e64f	-0.022692828
22	0x3c8912ca	0.016732592
23	0xbd08d3e3	-0.033405196
24	0xbd2faab0	-0.04288739
25	0x3b0df6d1	0.0021662007
26	0xbd385771	-0.045005266
27	0xbc179ce9	-0.009253719
28	0xbd7b1cc4	-0.06130673
29	0xbd8060bc	-0.062684506
30	0xbd2f950f	-0.042866763
31	0xbd7385e4	-0.05945386
32	0x3d3924c8	0.045201093
33	0x3d9f6bd6	0.0778424
34	0xbd168044	-0.036743417
35	0x3c91a3ca	0.017778296
36	0xbb8fbe88	-0.0043867268
37	0xbd045263	-0.032305133
38	0xbd457673	-0.048208665
39	0xbd4ec9a7	-0.05048528
40	0x3c2bab9e	0.010477928
41	0xbbae8812	-0.0053262794
42	0xbd625b0e	-0.055262618
43	0xbde98587	-0.114024214
44	0xbdd4e98b	-0.10396107
45	0xbbf2e56b	-0.0074126027
46	0xbd1b5bf3	-0.037929486
47	0x3d8f735e	0.070044264
48	0xbc0cb809	-0.008588799
49	0x3d29ad01	0.041424755
50	0x3bd374fa	0.0064531537
51	0xba84ff82	-0.0010146948
52	0xbd997de1	-0.074947126
53	0xbd16e423	-0.036838662
54	0x3c26b5a6	0.010175144
55	0xbc86a0c2	-0.016434077
56	0x3d85cd08	0.06533247
57	0x3ced70b1	0.0289844
58	0x3d52d58f	0.051473197
59	0x3b819cb6	0.003955449
60	0x3d3d33c9	0.046191964
61	0xbcea054e	-0.028566983
62	0x3d351b1e	0.044215314
63	0x3c3160a5	0.0108262645
64	0xbb76aac1	-0.0037638398
65	0xbd728ad8	-0.059214443
66	0xbcb277a5	-0.021785567
67	0xbd950010	-0.072754025
68	0xbd6a21d0	-0.057161152
69	0xbd483f1d	-0.048888315
70	0x3d812d88	0.063075125
71	0xbc1e908e	-0.009678019
72	0x3d1c3f9b	0.038146596
73	0x3d38374b	0.044974606
74	0xbc94e46a	-0.018175323
75	0xbd031c65	-0.0320095
76	0x3d4e83c6	0.050418638
77	0xbcd0da59	-0.025494741
78	0xbcc02c27	-0.023458553
79	0x3cac20f6	0.02101181
80	0x3c9b728f	0.018975524
81	0x3ccf6701	0.02531767
82	0x3c5dec30	0.013545081
83	0x3bd88492	0.0066076005
84	0x3dac0f58	0.08401364
85	0x3c5c506c	0.013446908
86	0xbc78888b	-0.015169273
87	0x3d0ac6e7	0.033881094
88	0x3d22da51	0.039758984
89	0x3d47993d	0.048730124
90	0x3aae349b	0.0013290824
91	0x3cde05f1	0.027102442
92	0x3b474fa2	0.0030412455
93	0x3c19ff2f	0.009399219
94	0xbcb40c68	-0.021978572
95	0x3d423499	0.047413442
96	0x3da4fccc	0.0805603
97	0x3c098e58	0.008395754
98	0xbc5fcd5e	-0.013659803
99	0xbb724b85	-0.0036971283
100	0x3ccc25b5	0.024920324
101	0x3cca50cd	0.024696732
102	0xbd8aee51	-0.067837365
103	0xbd3f0925	-0.04663958
104	0x3d238324	0.039919987
105	0x3da1b623	0.07896068
106	0xbc8c4d54	-0.017126717
107	0x3c6473fe	0.01394367
108	0x3cd802a5	0.026368449
109	0x3cb5eef5	0.02220867
110	0x3c06539e	0.008198647
111	0xbcc5c5df	-0.024142204
112	0x3cb1e8d5	0.021717468
113	0xbc2c864b	-0.010530065
114	0xbd12364e	-0.03569632
115	0xbb190970	-0.0023351572
116	0x3d858f60	0.06521487
117	0xbcd32f67	-0.02577944
118	0x3ce977de	0.02849954
119	0x3c9bab89	0.019002693
120	0xbd321cf9	-0.04348466
121	0xbc2fbeaa	-0.01072661
122	0x3d9b431b	0.07581159
123	0x3b7d9e59	0.003869912
124	0xbcd97d74	-0.026549079
125	0xbd070028	-0.032959133
126	0x3dca560a	0.09879692
127	0x3c11600e	0.008872999
128	0xbc617a82	-0.013762118
129	0x3d79e07f	0.06100511
130	0xbcb3383c	-0.0218774
131	0xbca77484	-0.020441301
132	0xbc079759	-0.00827583
133	0xbd82cc81	-0.06386662
134	0xbc686179	-0.014183396
135	0xbd1354f2	-0.035969682
136	0xbc2e65c6	-0.010644382
137	0x3c6d6411	0.01448919
138	0x3dad2935	0.08455125
139	0x3c9ec743	0.019382125
140	0x3d852a4b	0.06502207
141	0xbd57818d	-0.052613784
142	0xbc55b404	-0.013043407
143	0x3c76a8b8	0.015054874
144	0x3be9f395	0.007139633
145	0xbcc4f26f	-0.024041383
146	0xbcf74656	-0.030184906
147	0xbabba44e	-0.0014315934
148	0xbc19a578	-0.00937783
149	0x3c8b7a13	0.017025983
150	0x3cf26f51	0.029594095
151	0x3d844ea3	0.06460311
152	0x3c5fc533	0.013657856
153	0x3d015f8a	0.031585254
154	0x3b66feb4	0.003524703
155	0x3cf2f851	0.029659422
156	0x3cd5faa2	0.026120488
157	0x3cfc3c31	0.03079042
158	0xbcff6fe5	-0.031181285
159	0x3ccb88d4	0.024845518
160	0xbd475194	-0.048661783
161	0x3d470dd9	0.04859719
162	0x3cc7cf68	0.024390891
163	0x3d4292f8	0.04750344
164	0x3caf56a1	0.021403613
165	0xbc984b19	-0.018590497
166	0xbbe01a55	-0.0068390765
167	0xbc2161c2	-0.009849967
168	0xbc85eec4	-0.016349204
169	0x3d46978a	0.048484363
170	0xbd596508	-0.053074867
171	0xbcf05ded	-0.029341662
172	0xbd69984f	-0.05703002
173	0x3ca900e0	0.0206303
174	0x3a1d21b6	0.0005994098
175	0x3d0d068e	0.03443008
176	0x3c9bedb8	0.019034252
177	0xbcebefcf	-0.028800873
178	0xbd079bf7	-0.033107724
179	0x3b33b7a4	0.002742269
180	0xbd51adf7	-0.051191296
181	0x3d94ff98	0.07275313
182	0xbcd3873b	-0.025821319
183	0xbd663c26	-0.056209706
184	0xbc6675fc	-0.014066216
185	0xbc6c2e17	-0.014415286
186	0xbd0ae708	-0.033911735
187	0x3db020a9	0.085999794
188	0xbb42972e	-0.002969216
189	0xbd89645c	-0.06708595
190	0xbc6002dc	-0.013672557
191	0x3c473567	0.012158728
192	0xbc2d9cf2	-0.010596501
193	0xbbedc916	-0.0072566373
194	0xbd62f091	-0.055405203
195	0xb8a2afe9	-7.757528e-05
196	0x3c91b950	0.01778856
197	0x3cab1940	0.020886064
198	0x3d4cb9c1	0.049981836
199	0x3bcf15b7	0.0063197273
200	0x3c2ed942	0.0106719155
201	0xbd3df0b3	-0.046372127
202	0xbd3c03f0	-0.045902193
203	0x3c5a19be	0.0133118015
204	0x3c42e25a	0.011894787
205	0x3d0b551f	0.034016725
206	0xbcfc60cb	-0.030807873
207	0xbc31d2d6	-0.01085349
208	0xbd849c5b	-0.06475135
209	0x3d19b126	0.037522458
210	0xbcee86f4	-0.029117085
211	0x3d41355e	0.047170036
212	0xbce63978	-0.028103575
213	0xbb844529	-0.004036565
214	0x3c315fa8	0.010826029
215	0x3cb837d6	0.022487562
216	0xbd88d3ea	-0.066810444
217	0xbcbb21db	-0.022843292
218	0xbdbc5787	-0.09196382
219	0x3c903afb	0.01760625
220	0x3d8fdfbf	0.07025098
221	0x3d80bda4	0.06286171
222	0x3d0e7a32	0.034784503
223	0x3c76e499	0.01506915
224	0xbb6aa48e	-0.0035803649
225	0xbd7b6035	-0.061371047
226	0xbcc36d9b	-0.023855975
227	0xbce290ba	-0.027656902
228	0xbd68d2d0	-0.05684167
229	0xbd9d8fd1	-0.076934464
230	0x3c35255b	0.0110562695
231	0xbda521d9	-0.080630966
232	0xbda92847	-0.082596354
233	0xbbdd0b03	-0.0067456975
234	0xbc7ddcfd	-0.015494582
235	0x3d5a9fba	0.053374983
236	0x3ce7a912	0.028278861
237	0x3d104513	0.035222124
238	0xbd724cd5	-0.059155304
239	0xbc0572c3	-0.008145037
240	0x3c42601f	0.011863737
241	0x3d35b2bb	0.044359904
242	0x3d0a58b0	0.033775985
243	0x3d2ab64f	0.04167777
244	0xbd4a7323	-0.04942621
245	0xbd5724d9	-0.052525375
246	0x3c4c4a57	0.012468896
247	0xbcd583f3	-0.026063895
248	0xbd0ac251	-0.03387672
249	0xbd3c82b7	-0.046023097
250	0x3db6c42f	0.08924138
251	0x3c6f49eb	0.014605026
252	0xbc27638e	-0.010216607
253	0xbc06a175	-0.008217205
254	0xbc49d1fc	-0.012318131
255	0xbb880630	-0.004151128

conv3.bias f4 [16]
0	0xbe61332a	-0.21992174
1	0x3c4bb558	0.012433372
2	0xbdd07836	-0.101791784
3	0xbe09fb6b	-0.13474815
4	0xbdfcce3e	-0.12344025
5	0xbde1658c	-0.11005697
6	0xbd8cc798	-0.06874007
7	0xbe4a076a	-0.1972939
8	0xbe119106	-0.14215478
9	0xbe44982e	-0.19198677
10	0xbe27b82e	-0.16378853
11	0x3d07f48c	0.033192202
12	0xbe2a474f	-0.16628765
13	0xbe5bda68	-0.21470034
14	0xbe05bd27	-0.13060437
15	0xbe5a624a	-0.21326557

dense1.weight f4 [100, 2288]
0	0xbbc1edde	-0.0059182486
1	0x3cc9bf0b	0.02462723
2	0xbcba5826	-0.02274711
3	0xbc917a93	-0.017758643
4	0xbad00117	-0.0015869465
5	0xbd0b5044	-0.034012094
6	0xbc860a90	-0.016362458
7	0x3c41798b	0.011808763
8	0x3d0afcd0	0.033932507
9	0x3d95ab95	0.07308117
10	0xbc728944	-0.0148032345
11	0xbd0eecac	-0.034893677
12	0xbd18a9c2	-0.03727127
13	0x3cd87633	0.02642355
14	0xbb840948	-0.0040294267
15	0xbbd4c01c	-0.006492628
16	0x3bf1ca94	0.0073788855
17	0x3d3a4afd	0.04548167
18	0xbd97c004	-0.07409671
19	0x3cb0c67a	0.021579016
20	0xbceb2a8e	-0.028706815
21	0xbd40e0a1	-0.047089223
22	0xbd3c39d3	-0.045953583
23	0xbd856d05	-0.065149345
24	0x3bd67e5d	0.0065458254
25	0xbca35054	-0.019935764
26	0x3cdff0fa	0.027336586
27	0xbdd288d4	-0.10280004
28	0x3a53790d	0.0008067049
29	0xbd25f007	-0.04051211
30	0xbcfd2260	-0.03090018
31	0xbcad5ac6	-0.021161448
32	0x3ce0f0bb	0.02745854
33	0x3e04a5cf	0.12953876
34	0x3d94af32	0.07259978
35	0x3b7be387	0.0038435177
36	0x3d644933	0.05573387
37	0xbd1cfa23	-0.038324486
38	0x3da613be	0.08109234
39	0x3d9083c8	0.07056385
40	0x3d071b6a	0.03298513
41	0xbd0120a0	-0.031525254
42	0xbc524e17	-0.012836001
43	0x3cc888e1	0.024479331
44	0xbcde5e58	-0.027144596
45	0x3c05fad9	0.0081774825
46	0xbd35e2f1	-0.04440588
47	0x3b0b9688	0.002129944
48	0xbcbc1dc5	-0.022963414
49	0xbcdca546	-0.026934277
50	0xbc8109ed	-0.015751803
51	0x3c85623e	0.016282197
52	0xbd776b68	-0.060405165
53	0xbd378fb0	-0.044814765
54	0xbd22c9b6	-0.039743148
55	0x3cffe9ff	0.031239508
56	0x3cbc83f3	0.023012137
57	0x3bfd66fc	0.007733224
58	0x3d0e855b	0.034795146
59	0x3cb5cb25	0.022191593
60	0x3d60db38	0.054896563
61	0x3ce78d0b	0.028265497
62	0x3c8370e3	0.01604504
63	0xbd363dd7	-0.04449257
64	0xbc186338	-0.009300999
65	0x3d0cb3f8	0.03435132
66	0x3c966467	0.018358422
67	0x3d9e0c58	0.07717198
68	0xbb00a2cd	-0.0019628287
69	0x3dd0660f	0.10175716
70	0xbbd05310	-0.006357558
71	0x3b9a343c	0.004705934
72	0xbd16f9e8	-0.036859423
73	0x3d37cb8f	0.044871863
74	0xbd61b75b	-0.055106502
75	0x3cbb77f3	0.022884345
76	0x3c23257f	0.00995767
77	0x3d760771	0.06006569
78	0x3c4c794b	0.01248009
79	0xbceb161a	-0.028697062
80	0xbc659e71	-0.014014826
81	0xbc48e036	-0.012260487
82	0x3cab81f5	0.020935992
83	0x3d5df23f	0.054186102
84	0x3c21a875	0.009866823
85	0xbb46e25e	-0.0030347328
86	0xbcb8dea3	-0.022567099
87	0x3d1fde14	0.03903015
88	0xbd77fc21	-0.060543183
89	0xbd658b40	-0.056041002
90	0xbd56dfaf	-0.052459415
91	0xbb7bda14	-0.0038429545
92	0xbd1b4039	-0.037903044
93	0xbb565b56	-0.003270825
94	0xbdf5cc9c	-0.12001917
95	0xbccec3f6	-0.025239926
96	0xbce66bf2	-0.028127644
97	0xbd9f5acf	-0.07780992
98	0xbd138500	-0.03601551
99	0xbd0d9fb8	-0.034576148
100	0x3d5b149c	0.05348645
101	0x3c10ac4b	0.00883014
102	0x3aaa0bf0	0.0012973528
103	0xbd717758	-0.058951706
104	0x3d04dac5	0.032435197
105	0xbd6f4e0c	-0.05842404
106	0xbc9f952f	-0.019480316
107	0xbdd343c8	-0.103156626
108	0x3cf383b6	0.02972589
109	0xb9a26fb1	-0.00030982264
110	0x3bcbea3c	0.0062229913
111	0xbcd2c5dc	-0.025729112
112	0xbd1a8fa1	-0.03773463
113	0x3d04e992	0.032449313
114	0x3d1eeae7	0.03879824
115	0xbcd614e6	-0.026133012
116	0x3d1543d4	0.03644164
117	0xbccb7929	-0.024838047
118	0xbc40dd05	-0.011771445
119	0xbc337af8	-0.010954611
120	0xbd047db1	-0.03234643
121	0xbdaebb8e	-0.08531867
122	0x3c21f714	0.009885568
123	0xbd2d0362	-0.042239554
124	0xbbc44755	-0.0059899488
125	0xbc8fb902	-0.017544273
126	0x3d899b84	0.067191154
127	0xbde0eff8	-0.109832704
128	0xbbab61ce	-0.005230165
129	0x3a951617	0.0011374381
130	0x3d74a9c4	0.059732214
131	0xbc05f504	-0.008176092
132	0x3d4c17b3	0.04982729
133	0x3aae7a28	0.0013311552
134	0xbd172425	-0.036899704
135	0x3d0c025b	0.034181934
136	0xbcafe342	-0.02147067
137	0x3da12b96	0.078696415
138	0x3ca78dda	0.020453382
139	0x3bda26aa	0.006657441
140	0xbce4ade7	-0.027914954
141	0x3aa8dfde	0.00128841
142	0x3c7fcf22	0.015613349
143	0x3d41172f	0.04714125
144	0xbda3db1b	-0.080007754
145	0x3cbd012a	0.023071844
146	0xbd4fd087	-0.050735977
147	0x3d8c5847	0.06852775
148	0x3b54f704	0.0032495866
149	0x3d7f1188	0.06227258
150	0xbdc783a9	-0.09741909
151	0x3c86f448	0.016473904
152	0xbd8a1709	-0.06742675
153	0xbd175cf7	-0.036953893
154	0x3d9d2504	0.07673076
155	0x3d89eb9e	0.067343935
156	0x3d0c533a	0.03425906
157	0xbc3778d5	-0.011198242
158	0xbce6f7b9	-0.028194295
159	0x3db785f1	0.08961094
160	0x3d410b0c	0.047129676
161	0x3ddabb7d	0.10680292
162	0x3c906bd3	0.01762954
163	0x3d251578	0.040303677
164	0x3d44af9d	0.04801904
165	0x3d6f7a51	0.05846626
166	0xbc5edcbd	-0.013602433
167	0x3c8f7e32	0.01751623
168	0x3d162859	0.036659572
169	0xbd90495c	-0.07045242
170	0xbd762cbf	-0.060101267
171	0xbc2b0361	-0.010437817
172	0x3d887216	0.06662385
173	0x3ba42d78	0.005010303
174	0x3ca460af	0.020065634
175	0xbd23692a	-0.039895214
176	0xbced552e	-0.02897128
177	0xbb641d8e	-0.0034807655
178	0x3d3bf044	0.045883432
179	0x3b461520	0.0030224994
180	0x3c39b728	0.011335172
181	0x3d4f5c96	0.050625406
182	0xbd013301	-0.03154278
183	0xbbbe6793	-0.005810687
184	0x3b21637d	0.002462595
185	0x3d152961	0.036416415
186	0xbc165c7a	-0.009177322
187	0x3bdd58bb	0.0067549623
188	0x3b1b66c4	0.0023712376
189	0xbd08bf4f	-0.03338557
190	0xbcf1243c	-0.029436223
191	0x3ccc6925	0.02495248
192	0xbcdbff5d	-0.026855165
193	0x3ce14dfd	0.027503008
194	0x3d1a6b71	0.03770012
195	0x3d10ddc9	0.03536776
196	0x3d5d406d	0.05401652
197	0x3b984932	0.0046473974
198	0xbc8b4dba	-0.017004836
199	0x3d9265a5	0.071482934
200	0x3cefcf74	0.029273726
201	0x3ca15b6e	0.019696917
202	0xbc5880aa	-0.01321427
203	0x3c219835	0.009862949
204	0x3c600792	0.01367368
205	0x3c69c840	0.014268935
206	0xbcdb9f90	-0.026809484
207	0xb9fa3eb4	-0.00047730433
208	0xbc09e8b0	-0.008417293
209	0xbd3f12c5	-0.04664876
210	0x3d79d147	0.060990598
211	0xbb47f5e7	-0.003051156
212	0x3c940abd	0.018071527
213	0x3d74324d	0.059618283
214	0xbcc81037	-0.024421794
215	0x3cccbefd	0.024993414
216	0xbc6def9f	-0.014522462
217	0xbb078a7b	-0.0020681906
218	0xbc9aad53	-0.018881476
219	0x3d2d6cee	0.04234021
220	0xbd700111	-0.058594767
221	0x3d38d70a	0.045126952
222	0x3d3ce325	0.04611506
223	0xbc18a520	-0.009316713
224	0xbd9780c3	-0.07397606
225	0x3cf9cbb1	0.030492635
226	0x3ca0499d	0.019566352
227	0xbca49225	-0.020089218
228	0xbd987bf0	-0.07445514
229	0xbda3dfed	-0.08001695
230	0xbcfdb51d	-0.03097015
231	0xbd2b02ab	-0.04175059
232	0x3cae0b29	0.021245556
233	0xbd34af91	-0.044112746
234	0xbbe3fec0	-0.006957859
235	0x3d047bf9	0.032344792
236	0x3afd3192	0.0019317141
237	0x3d2b85a6	0.041875504
238	0x3c4d6f48	0.012538739
239	0xbccd231d	-0.025041157
240	0xbd08337a	-0.033252217
241	0xbcc5de09	-0.024153726
242	0xbd14b61e	-0.036306493
243	0xbc860370	-0.016359061
244	0x3bbadf93	0.0057029217
245	0xbc8a8ff1	-0.01691434
246	0x3ceb5f2e	0.028731909
247	0x3c27f65b	0.010251607
248	0x3cb665a1	0.022265257
249	0x3c3899bf	0.011267125
250	0xbc03eab4	-0.008051563
251	0xbd445e77	-0.04794165
252	0xba1ee49b	-0.00060612865
253	0x3c881a5a	0.016614128
254	0xbc7479b1	-0.014921592
255	0x3d22f9e9	0.039789114

dense1.bias f4 [100]
0	0x80002c5c	-1.5913e-41
1	0x00002415	1.2944e-41
2	0x000000ff	3.57e-43
3	0x0000267f	1.381e-41
4	0x80004617	-2.5143e-41
5	0x80004ceb	-2.7593e-41
6	0x80014ad4	-1.18679e-40
7	0x00002a1b	1.5105e-41
8	0x80002715	-1.402e-41
9	0x00000866	3.013e-42
10	0x00008b77	5.003e-41
11	0x0000251b	1.3311e-41
12	0x80008c4d	-5.033e-41
13	0x80004798	-2.5683e-41
14	0x000058d3	3.1864e-41
15	0x00005136	2.9133e-41
16	0x00002f2f	1.6926e-41
17	0x8000236c	-1.2707e-41
18	0x000025df	1.3586e-41
19	0x800020ac	-1.172e-41
20	0x00007587	4.2161e-41
21	0x00000640	2.242e-42
22	0x80001e31	-1.083e-41
23	0x00003673	1.9533e-41
24	0x8000416c	-2.3469e-41
25	0x0000543e	3.022e-41
26	0x00004b6a	2.7053e-41
27	0x8000336a	-1.8444e-41
28	0x8000026e	-8.72e-43
29	0x8000221e	-1.2239e-41
30	0x00005430	3.0201e-41
31	0x80006555	-3.6351e-41
32	0x0000e62e	8.2573e-41
33	0x80006d41	-3.9193e-41
34	0x000055ce	3.0781e-41
35	0x80001cd1	-1.0337e-41
36	0x800087d3	-4.8725e-41
37	0x000045b8	2.501e-41
38	0x80011d47	-1.02338e-40
39	0x2708ccbe	1.8984782e-15
40	0x000009a0	3.453e-42
41	0x00001350	6.928e-42
42	0x8000561c	-3.089e-41
43	0x00003763	1.9869e-41
44	0x80002a93	-1.5273e-41
45	0x80002d25	-1.6195e-41
46	0x000016c0	8.161e-42
47	0x80005f70	-3.4237e-41
48	0x8000363e	-1.9458e-41
49	0x800049dd	-2.6497e-41
50	0x8000268a	-1.3825e-41
51	0x00002896	1.456e-41
52	0x800051d6	-2.9357e-41
53	0x00000abd	3.852e-42
54	0x00002399	1.277e-41
55	0x80000a7b	-3.76e-42
56	0x000022d9	1.2501e-41
57	0x8000de0b	-7.9654e-41
58	0x00005962	3.2065e-41
59	0x80000160	-4.93e-43
60	0x80006647	-3.669e-41
61	0x00000905	3.236e-42
62	0x0000409e	2.318e-41
63	0x00003558	1.9136e-41
64	0x00001150	6.21e-42
65	0x80002ade	-1.5378e-41
66	0x000020d0	1.1771e-41
67	0x80026648	-2.20363e-40
68	0x00004724	2.552e-41
69	0x80001ace	-9.616e-42
70	0x800027d6	-1.429e-41
71	0x00001067	5.884e-42
72	0x00004460	2.4528e-41
73	0x800052fb	-2.9768e-41
74	0x00002d7c	1.6317e-41
75	0x800047ad	-2.5712e-41
76	0x8000383f	-2.0177e-41
77	0x80004107	-2.3327e-41
78	0x80007be2	-4.4441e-41
79	0x80000241	-8.09e-43
80	0x80005ba8	-3.288e-41
81	0x0000247f	1.3092e-41
82	0x000021d8	1.2141e-41
83	0x000051fc	2.941e-41
84	0x000038c7	2.0368e-41
85	0x000078fc	4.3401e-41
86	0x0000225b	1.2324e-41
87	0x80004e61	-2.8117e-41
88	0x0000c38f	7.0153e-41
89	0x00002359	1.268e-41
90	0x800069bb	-3.7929e-41
91	0x80000fc9	-5.663e-42
92	0x80000bb7	-4.202e-42
93	0x80002415	-1.2944e-41
94	0x800008c2	-3.142e-42
95	0x0000afe0	6.3092e-41
96	0x800032e2	-1.8253e-41
97	0x80002aa9	-1.5304e-41
98	0x00012202	1.04035e-40
99	0x8000c100	-6.9235e-41

batchnorm1.weight f4 [16]
0	0x3f82a948	1.020791
1	0x3f6dd5f4	0.9290459
2	0x3f83c8fa	1.0295708
3	0x3f718525	0.9434379
4	0x3f823f15	1.0175501
5	0x3f7f7adc	0.99796844
6	0x3f8112f3	1.0083908
7	0x3f857e91	1.042925
8	0x3f7154f3	0.9427025
9	0x3f715140	0.942646
10	0x3f7f4689	0.99717003
11	0x3f8067c5	1.0031668
12	0x3f8058b5	1.0027071
13	0x3f567918	0.83778524
14	0x3f8213f4	1.0162339
15	0x3f7b8ac7	0.9825863

batchnorm1.bias f4 [16]
0	0x3c8d07fb	0.01721572
1	0xbe0f9068	-0.1401993
2	0x3e315416	0.17317232
3	0x3ea99246	0.3311941
4	0x3e44a1cc	0.19202346
5	0x3cc7539c	0.02433186
6	0x3e478df3	0.19487743
7	0x3e96def0	0.29466963
8	0xbe380355	-0.17970021
9	0x3e3ef905	0.18649681
10	0x3da2c2f3	0.0794734
11	0xbd0dbb04	-0.03460218
12	0x3df70950	0.12062323
13	0x3ebd3884	0.3695718
14	0x3d6b5d6e	0.05746215
15	0xbe66b61f	-0.22530411

batchnorm1.running_mean f4 [16]
0	0x3eec215f	0.4611921
1	0x3f11540f	0.5676889
2	0x3f06f53e	0.5271796
3	0x3e1accb3	0.15117149
4	0x3ea9a082	0.3313027
5	0x3ea72f2f	0.32653186
6	0x3eb3888e	0.3506512
7	0x3ef9c9f6	0.48786896
8	0x3ea6acc1	0.32553676
9	0x3ebf82e7	0.37404558
10	0x3eca7604	0.39543164
11	0x3ec77e58	0.3896358
12	0x3e08d42e	0.1336219
13	0x3ea997d2	0.33123642
14	0x3eeaf7b7	0.45892116
15	0x3e4439a4	0.19162613

batchnorm1.running_var f4 [16]
0	0x3d86b9eb	0.0657843
1	0x3dffdd2c	0.12493357
2	0x3db33028	0.087494195
3	0x3cc813d3	0.024423515
4	0x3d33dc7f	0.043911453
5	0x3d67dfc2	0.056609876
6	0x3d118cf8	0.03553483
7	0x3df16576	0.1178693
8	0x3db838b7	0.089951925
9	0x3daea5a8	0.0852769
10	0x3d7fe5f2	0.062475152
11	0x3d89f724	0.067365915
12	0x3c97fe3a	0.018553842
13	0x3e045c03	0.12925725
14	0x3dcba381	0.09943295
15	0x3cdba6d3	0.026812946

batchnorm2.weight f4 [16]
0	0x3f8bc613	1.0919822
1	0x3f96c639	1.1779243
2	0x3f8ad46e	1.0846078
3	0x3f8c4249	1.0957729
4	0x3f88ba9c	1.0681949
5	0x3f896239	1.07331
6	0x3f8d4fa4	1.1039929
7	0x3f8cb038	1.0991278
8	0x3f889950	1.0671787
9	0x3f8cbcd3	1.0995125
10	0x3f8fa7d3	1.1223091
11	0x3f8d6ec0	1.1049423
12	0x3f83d95c	1.0300708
13	0x3f8a7a00	1.0818481
14	0x3f8193eb	1.0123266
15	0x3f82ed6b	1.0228704

batchnorm2.bias f4 [16]
0	0x3c335e66	0.010947799
1	0x3caa2dab	0.02077373
2	0x3c7c183d	0.015386638
3	0x3b70e16f	0.0036755463
4	0xbd2c668f	-0.042089995
5	0x3c85dce7	0.016340686
6	0x3cd38754	0.025821365
7	0xbd279a77	-0.040918794
8	0xbd1ab618	-0.037771314
9	0x3ba065e2	0.004894958
10	0xbba5cbd2	-0.0050596977
11	0x3d26b84d	0.040703107
12	0x3d92e877	0.071732454
13	0x3c53fd98	0.012938879
14	0x3d60b13f	0.054856535
15	0x3d844a12	0.0645944

batchnorm2.running_mean f4 [16]
0	0x3f7f95c9	0.9983793
1	0x3fb50528	1.4142199
2	0x3f8bcc6e	1.0921762
3	0x3f83d98c	1.0300765
4	0x3f59b36f	0.8503942
5	0x3fc34f95	1.5258662
6	0x3f87e985	1.061814
7	0x3f7152fe	0.9426726
8	0x3f298e57	0.6623282
9	0x3f592919	0.84828335
10	0x3f485cfe	0.78266895
11	0x3fd00df1	1.6254255
12	0x3eba31aa	0.36366016
13	0x3ef6a8d6	0.48175687
14	0x3f4262f2	0.7593223
15	0x3f971d83	1.1805881

batchnorm2.running_var f4 [16]
0	0x3f156e6a	0.58371603
1	0x3f00f8c0	0.5037956
2	0x3f25f168	0.6482148
3	0x3f174968	0.59096384
4	0x3eff9f92	0.4992643
5	0x3f1643df	0.58697313
6	0x3f1b20f3	0.6059715
7	0x3f4794ee	0.77961624
8	0x3edb35e4	0.42814553
9	0x3ef0afda	0.47009164
10	0x3eeb977e	0.46014017
11	0x3f2f4c22	0.68475544
12	0x3ea71b45	0.32637993
13	0x3f01ee52	0.5075427
14	0x3ee4fd02	0.4472428
15	0x3f21302f	0.6296415
