models/TS_stagernet.pth (torch_old, 973958 bytes, 16 tensors)

conv1.weight f4 [11, 1, 1, 11]
00000000: 75a2 133e 62a7 4c3e d290 803e d260 233e
00000010: 0f8b 7c3d fab8 39be a1f1 1c3e 443b 44bd
00000020: d28e 493e 555d 91be cd4e 35be e28e 183e
00000030: da1c 2e3d 8b06 7fbe f2ae 8a3d 9302 b8be
00000040: 3832 b7be 8b02 cfbd 1378 75bc f3aa 983e
00000050: 5e04 3a3d 0afa 05be afdd 37be 3a2b 2ebe
00000060: 60f1 733e abfc d93d 0d3a 8f3e 79c7 073d
00000070: b2a8 f53d 3feb eb3d 3505 613e 1d45 363e
00000080: 43e7 b1be a37b bf3d cc4c 88bd 2b06 513e
00000090: 261b 823d 4589 94be e99b 863e f124 45be
000000a0: 316c 493e 6660 803e d187 5b3e 2eec 88be
000000b0: 9230 233e f2f8 573e 2ddc 7cbe e4d4 8f3c
000000c0: 6dcd 433e 67d8 cdbd 96ed 48be c773 3a3e
000000d0: a9ca 433e 4d2e 883d bdfb 653e a2da 913d
000000e0: b521 b83c 9aee 373e dc96 2b3d e481 803e
000000f0: df53 6e3e f6ef c6bd 9793 173e fbe2 5cbe
00000100: 6e94 56be 2694 e53d a6b3 833d 1b83 863e
00000110: bfd9 a43e f541 54be 5c6b 8ebe 08fe fbbd
00000120: c77e 29be aeb0 0e3e ad0e a23e 466c 0c3e
00000130: 4d74 5f3e 14c5 113e bf7b 273e 3ddf a73d
00000140: c301 4fbe 324a 9f3d 0823 013e 184a a43d
00000150: 77a8 2b3e c614 93be bed4 3c3e 083e 33bd
00000160: 9fdd 58be b90a 643c 61c8 85be 3daf 4f3d
00000170: 2889 bebe 9e2f 4dbb 27aa 313e 98bd c63d
00000180: fbd4 373e 5926 f2bd 5899 26be f25d 8c3e
00000190: 93cb 253e 2c5f 7a3e e016 a03e 5e55 80be
000001a0: 2061 863e e504 5abe 527e a8be f3bd 5fbe
000001b0: 2105 56be 2dcf 5abd a9d4 3d3e aeee a13d
000001c0: 1e47 5d3e f348 4e3c 0f2f b53d 4447 febd
000001d0: 8287 1bbd c732 e73e d804 78be 8b04 83bd
000001e0: 9cf4 cdbd
0.14417441 0.19985726 0.2511049 0.15954903 0.061656054 -0.18136969 0.15326549 -0.047908083
0.19683388 -0.2839152 -0.17705841 0.14898255 0.042507984 -0.2490484 0.067716494 -0.35939464
-0.357805 -0.10107907 -0.014982241 0.29817924 0.04541432 -0.13083664 -0.1795566 -0.17008677
0.23822546 0.10643896 0.27973977 0.033149216 0.11995067 0.11519479 0.21974643 0.17799802
-0.3474675 0.09349754 -0.06655273 0.20412509 0.063528344 -0.29010978 0.26290825 -0.19252373
0.19670178 0.25073546 0.21438529 -0.2674269 0.15936497 0.21091059 -0.24693365 0.017557569
0.19121332 -0.10051041 -0.19621882 0.18208228 0.19120277 0.06649456 0.22459312 0.07121779
0.02247701 0.17962113 0.041891918 0.250991 0.23274182 -0.09713738 0.14802395 -0.21570961
-0.20955059 0.11209898 0.064307496 0.262719 0.32197377 -0.20728286 -0.27816284 -0.12304312
-0.16552268 0.13934585 0.31651822 0.13713178 0.21821709 0.14235336 0.16355799 0.08196876
-0.20215516 0.077778235 0.1261102 0.08021945 0.16763483 -0.28726786 0.1844053 -0.04376033
-0.21178292 0.013918572 -0.2612944 0.05070423 -0.37214017 -0.00313089 0.17350064 0.09704131
0.1795234 -0.118237205 -0.16269433 0.27415425 0.16190939 0.24450368 0.31267452 -0.2506513
0.26245975 -0.2129093 -0.32908875 -0.21849804 -0.20900394 -0.053420234 0.18538155 0.07906853
0.2160916 0.012590635 0.08846866 -0.124159366 -0.037971027 0.45155928 -0.24220598 -0.06397351
-0.10056421

conv1.bias f4 [11]
00000000: 0c30 cbbd 56ea ecbd 6886 3dbe 50c1 ba3d
00000010: 30bc 99bb ebac 53be 3af7 99bb f578 0e3e
00000020: 6e32 2bbc 6733 01be 6446 89bd
-0.099212736 -0.115681335 -0.18508303 0.09118903 -0.004691623 -0.20671432 -0.004698661 0.13913329
-0.010449035 -0.12617265 -0.06702879

conv2.weight f4 [16, 1, 50, 1]
00000000: 4716 01be e7e9 a33d 6274 eb3c 945a 103c
00000010: c1ea 1f3e 68aa 9c3d b86b 99bd 4ac7 9139
00000020: d5c2 17be 937e b3bd 9693 0e3d 6623 023e
00000030: ba93 4d3d e7b7 debd afa1 17be bfec e63b
00000040: de54 da3d 20db 1b3e bba6 cd3d 7dcc e43d
00000050: bfd7 95bd e9d4 223d b008 d23d 1966 a93c
00000060: 7b50 c03c 4e4a 54bd 9d76 c1bc 9b27 063d
00000070: 074d 873d 8b6a 5fbd c99f c03d 4660 afbd
00000080: f9a4 c0bd 5f62 ffbc ca58 e53d c096 073d
00000090: d4f0 f63d 7e3e a83c 8047 0abe faa3 9abd
000000a0: ff45 1fbe 921d 5bb9 308e b53d bf48 bb3d
000000b0: afc0 073d 2d4d d3ba f11b bdbd 6351 013c
000000c0: c35b 3e3c f117 5f3d 9704 b63c bdcc 2d3d
000000d0: 7786 56bd 51c0 6d3d efe4 5a3d 274d 17bd
000000e0: 04c2 d1bd 0e62 c83b 0eee 9bbd f1e2 773c
000000f0: 77fb f93d d842 12bd 0477 83bd 2939 2abe
00000100: 76bd d8bd 0839 123e db9e 1a3e 13d6 ca3d
00000110: 44d1 3abd 50ef cdbd daee 7bbd e587 0b3e
00000120: 171f 89bb 6148 72bc 951d e0bd b772 ecbd
00000130: 0804 b9bd b184 a63c 67ba 813d 97ef 97bd
00000140: fd75 85bd ad2c 7fbd cd65 093d 3ea5 3e3d
00000150: fc1e 38bd e067 223e bfce a9bd 519e db3d
00000160: 574d 893d 3eca b3bd e788 c53d 5a3b ca3d
00000170: 7c8d 343d 6dec 1c3d 2cf4 8d3d f8de 1ebe
00000180: 7de9 b6bd 24dd f2bd ce4f edbd 6c6c 65bc
00000190: 1358 caba 3a61 68bd a8e4 8a3c 6168 c03d
000001a0: 24da 0ebd 5e39 61bd 769a 313e e828 89bc
000001b0: 0da7 873c f73f ff3c d6bd e83d deb7 03be
000001c0: 808a d7bd 2040 b83d 7653 e33d df88 57bc
000001d0: 5701 0e3c 816a 6fbd defc 903d d73e 103d
000001e0: be23 e53d f752 e93d 93cf 063e f39a 5c3d
000001f0: ef85 f13d f9e5 68bd eff1 bbbd 143d 9d3d
00000200: c166 fbbd 09f5 78bd 5d4e 0abe df6f d5bd
00000210: d3cd 1ebe e6c2 09be 5706 14be 8975 babd
00000220: 4c43 3abe b370 9a3d fd14 3a3d b070 03be
00000230: be24 e63d ddf0 90bc 6268 3c3d 0d04 c63d
00000240: 41ce 5b3c 6daf 8c3d 9cd3 153c 0819 ebbc
00000250: 26ba ee3c 0d48 413d 489e e73d 3758 273c
00000260: a0ca 733d 7e6e 083e dc00 bd3d c6d1 233d
00000270: 2ced babd 42db 023e e9d6 0c3c be6a 44bc
00000280: 0ec6 89bd b833 a13b 284a 1d3e d91c f83d
00000290: 88a0 25be 4496 003d 9e7c b6bb 4a1b 153d
000002a0: afe2 f9bd cfa8 f2bd 810a 843d 5386 72bc
000002b0: 8194 813d dfb5 463d c242 20be 7af1 e1bd
000002c0: 0bd3 d2bd 321b 21be 6b2d a63d 6f00 2bbe
000002d0: 5b9a 233d 9879 9e3d e498 0fbc bd71 f8bc
000002e0: f349 bdbc b736 283c ad45 fbbd a31d 013e
000002f0: 1e00 a2bd 473a bc3c 6524 ee3d 853b 38bd
00000300: af8f 0f3e cc89 d53c e542 0fbe 900e 47bb
00000310: 82dc 223e 6bb1 e9bd 0a75 933d 2094 ffbd
00000320: 211a bd3d 182d 923c 5138 b0bd 7bee 9e3d
00000330: db6c a8bd 334a 0abe 3a81 e43d 4787 eb3c
00000340: c8d3 65bd 452f 92bd 8352 0dbd 22ac 0e3e
00000350: be87 b8bd 113f 043e 56c1 033e 7ac0 20be
00000360: 1203 7dbd 4d5c 3e3d e989 f73d 0e97 82bd
00000370: 843e cebb dd0f 723c 9fda 993d 6625 d13c
00000380: 02d5 86bd 9131 7cbd 69ff da3d 0a07 073d
00000390: 7f45 ebbd a11b 1b3e dd74 db3c 58fd 913d
000003a0: 41ce 0c3e 1255 e43d 6f60 22be 395f fd3c
000003b0: c2a3 8b3d cea3 80bd 0c74 003d 39ad debd
000003c0: 1cca 09bd 30a8 8d3d fa5a d2bd fc06 0d3e
000003d0: 1d12 6e3d 8bb9 c9bd ceeb 523d cd97 ca3d
000003e0: 2eb9 8e3d 7ad9 6d3d 0d48 e43d d280 2c3d
000003f0: 53c0 b3bc 476c d5bd 9361 06be b6ef 9fbc
-0.12606154 0.08003598 0.02874202 0.008810658 0.15616895 0.0764969 -0.07491249 0.00027805037
-0.14820416 -0.087643765 0.034808718 0.12708816 0.05018971 -0.1087492 -0.14807771 0.0070472653
0.106607184 0.15220308 0.10041567 0.111718155 -0.07316541 0.03975383 0.10255563 0.020678567
0.023475876 -0.051828675 -0.02361613 0.032752614 0.06606489 -0.054544967 0.094054766 -0.085632846
-0.09406466 -0.031174837 0.11198576 0.03310275 0.12057653 0.020537611 -0.13503838 -0.07550807
-0.15554045 -0.00020896483 0.08865011 0.091447346 0.03314274 -0.0016121023 -0.09233845 0.007892939
0.011618557 0.05446619 0.022218985 0.04243158 -0.05237433 0.058044735 0.053440984 -0.036938813
-0.10242084 0.0061152047 -0.07613765 0.015129791 0.12206166 -0.03570828 -0.06419185 -0.16623367
-0.10583012 0.14279568 0.15099661 0.09904113 -0.045609728 -0.10055411 -0.061507083 0.13626058
-0.0041846144 -0.014787764 -0.10943142 -0.115453176 -0.09033972 0.020326944 0.063343816 -0.07418745
-0.06516645 -0.062298466 0.03354435 0.046544306 -0.044951424 0.15859938 -0.08291387 0.10723556
0.067042045 -0.08778809 0.09645253 0.09874602 0.044080243 0.03831141 0.06931338 -0.15514743
-0.08931253 -0.118585855 -0.11587487 -0.014002901 -0.0015437625 -0.056733347 0.016954735 0.09394909
-0.034876004 -0.05498635 0.17344078 -0.016743138 0.016559148 0.03115843 0.11364333 -0.12863109
-0.10524464 0.08996606 0.11099903 -0.013155191 0.008667312 -0.05845118 0.070794806 0.03521618
0.11188458 0.113927774 0.13165121 0.05385871 0.11793124 -0.056859944 -0.091770045 0.07677665
-0.12275458 -0.06078056 -0.13506456 -0.10421728 -0.15508203 -0.13453254 -0.14455543 -0.09104449
-0.18189734 0.07541027 0.045430172 -0.12835956 0.11237477 -0.017692978 0.045997985 0.096687414
0.013415874 0.06869397 0.00914469 -0.02869846 0.029141497 0.047187854 0.11309487 0.010213903
0.05951941 0.133234 0.092286795 0.039994977 -0.09127268 0.12778953 0.00859616 -0.01198834
-0.06727229 0.0049194954 0.1536032 0.12114877 -0.16174519 0.031393304 -0.0055690547 0.036402978
-0.122014396 -0.11848604 0.06447316 -0.014802533 0.06327153 0.04851329 -0.15650466 -0.11032386
-0.102941595 -0.1573303 0.081141315 -0.16699384 0.039942127 0.07738036 -0.008764479 -0.030327672
-0.02310655 0.010266951 -0.12269149 0.12608962 -0.079101786 0.022977008 0.116280355 -0.044978637
0.14019655 0.026066683 -0.13990362 -0.003037367 0.1590443 -0.11410793 0.07200058 -0.124794245
0.09233499 0.017843768 -0.086044915 0.0776033 -0.082238875 -0.13504867 0.111574605 0.028751029
-0.056110173 -0.07137922 -0.034502517 0.13932851 -0.09010266 0.12914683 0.1286672 -0.15698424
-0.061770506 0.046474744 0.12086851 -0.06376468 -0.0062940735 0.01477429 0.07512402 0.025530528
-0.06583597 -0.061570708 0.10693247 0.032965697 -0.11487865 0.15147258 0.026789123 0.071283996
0.13750555 0.111490384 -0.15857099 0.030929195 0.06818344 -0.06281243 0.03136067 -0.10872883
-0.033640012 0.06916845 -0.10271259 0.13772196 0.058122743 -0.09849843 0.051494412 0.09892235
0.06968914 0.05806873 0.11146555 0.04211504 -0.021942293 -0.10421043 -0.13123159 -0.019523483

conv2.bias f4 [16]
00000000: 8605 0d3e 74f4 95bd 7751 d83d 0930 b1bc
00000010: 0a26 a3bd bc57 fcbd 095d 01be 859d eebc
00000020: 275c 45be 207f 453e 6a64 e4bb 0bf3 843d
00000030: 207c 513d 2a7e fbbd e78b d13d a68f f1bd
0.13771638 -0.07322016 0.10562413 -0.02162935 -0.0796624 -0.123214215 -0.12633146 -0.029127846
-0.19273435 0.19286776 -0.006969978 0.06491669 0.051143765 -0.12279923 0.102317624 -0.11794977

conv3.weight f4 [16, 16, 50, 1]
00000000: 7561 47bd df97 76bd d458 85bd 55b3 703c
00000010: a067 82bb fb3b 973a ce92 183d 9ea7 0d3b
00000020: 10ea 9ebb 21a9 deba 83d5 c6bc d598 de3c
00000030: 3552 f03a 1378 38bd 06af 5f3a 8c8c b3bc
00000040: 8f80 f0bc cb8b 8ebd 6bb9 4ebd de8d eabb
00000050: 8428 723c a04a 253c ef16 4ebc 6da9 9c3b
00000060: dec2 1abd cec0 06bc 7902 1b3d 20c1 2bbb
00000070: 4bfd 0f3c 9ea8 4fbc 0b1f 89bd 355c 70bc
00000080: 3ebe 2f3c c948 ddbc 360b 963c 53be 1bbc
00000090: 0374 4c3d e77d e6bc 9117 5e3c 2f5a 22bd
000000a0: 065c 44bd e85f 31bb 419b 07bd e623 9d3b
000000b0: 4d64 02bd 6581 b9bc b45c 37bd 1355 013d
000000c0: ab18 623c 3b55 6bbc 9ae1 36bc f4ed 3d3d
000000d0: 126b 0c3d 5d8f 033d 8ed0 c03c f2d7 6c3d
000000e0: 4ef3 47bd 8f51 293d 5d4d c53c 2b6e 6b3c
000000f0: 97fb 80bd ddbf cfbb 8710 60bc 109a bebc
00000100: c2e6 173d fe6c f63c a1ab fa3c ec93 04bc
00000110: 2ae7 babc 69dd 1d3d 8271 42bc 82c6 46bb
00000120: bbfa 253d f4d2 223d 9e91 433b eba3 2dbb
00000130: 0955 e5bc 1c02 2bbc 1e04 1d3d 2cc4 3abd
00000140: 12ae 8d3c a549 69bc 5d83 2fbd dcd1 58bc
00000150: 21a6 2bba 45c5 8b3d 7d9d 45bc d1c1 a8bc
00000160: ca5b a13c 361a bcbc 2fc4 843c 2e77 243c
00000170: fc17 5dbd 710c bfbc a854 863c 7542 583d
00000180: 9641 f13c af35 ba3c a99f 0f3d efe2 223c
00000190: 6b99 ecbc 0d35 183b 2522 ec3c d3c8 353d
000001a0: b590 aebc 0983 3bbc f8cc 07bd cfe2 4cbd
000001b0: cc1d abbc 12e5 f53c 7635 c3bc 9c29 8bbd
000001c0: 84ff 4abb 938a 2dbc b007 f53c 6436 d5bc
000001d0: 4f5b b7bc 436a 533c ed12 45bd 3dc8 32bc
000001e0: a9ec 183d bd03 923c 2c8d 7abc 803e 553d
000001f0: 7d4c 8cbb 034c 5bbd 77e3 4c3c d7fe da3a
00000200: 7623 713d ecfd d0bd deeb 07bd 4603 ddbc
00000210: 0946 80bd a7ee 223d 5abb 1ebd fcfc dabc
00000220: 82b6 173d 4f7d 38bd 131f d6bc 647c fe3c
00000230: a510 30bc c056 9f3b a21d fc3a 75a7 8ebd
00000240: e4ba a63c aa64 a63b 87ee 04bb 1db5 353c
00000250: 92a0 013d 5b09 e13c 6c76 10bd 08f3 813d
00000260: d260 e3bc dffb f33c 7bac e6bc 4ea2 0dbd
00000270: 310a 023d 1fc3 4a3d df90 c2bc 7bd6 653b
00000280: 9ed8 5ebc 688c 5ebd fa6d d73c 42b4 2dbd
00000290: cc42 d8bc 028c 41bc c82a bfbb fe15 c7bc
000002a0: 16be b03c 033e f63c 825c 143c c6cb 3c3b
000002b0: 0ca4 58bd 02af f3bb 4ff1 213d 085c f7bb
000002c0: 7d18 0a3d 3758 1bbd e8dd f5bc 16a0 173b
000002d0: afe0 23bd d44c d13c 7f0c 3ebd 7b76 3f3d
000002e0: 3882 a63a 72a7 92bd 0c00 35bd c010 3a3d
000002f0: c225 2e3c e4d7 e5bc 1c1b d7bc 460c 7cbd
00000300: 6f3a a83c 552b 2cbd 2f15 c33c 1c4b 98bd
00000310: 65d0 133c 6170 533d 6975 083d 9fdd 883c
00000320: 15af 343d e2ad 1c3d 41cc 603d 25f3 3f3c
00000330: 92a7 2d3d 6661 3f3d bbbc aa3c 71bd 553d
00000340: 3536 423d 0b4e 1c3d 64b6 713d dddf 863c
00000350: 90a8 bbbc 49eb 893c cc58 f13b a470 d2bc
00000360: 50cc fdbb 7590 3c3d 6616 ce3b 9ba3 27bc
00000370: c68b fc3c 2e19 103d 022f 06bd 464d c73c
00000380: a95d 953b 5124 9e3d 7520 033d 50dd 203d
00000390: c854 eb3b adcf 233d cde3 733b 5826 c23c
000003a0: 8587 a13c f4be 3e3d 4c97 2c3d ce34 003d
000003b0: 52cf 07bb 19e2 ab3c 516b cb3c cf0b 463b
000003c0: ac47 8d3c cab0 d43c bb52 3a3c fd23 513d
000003d0: e663 873c 23d6 0bbc afd3 be3b c0c1 72bc
000003e0: 1f07 dd3c ad36 8c3d e56d 2e3d 0c44 99bc
000003f0: 1568 bdbc d837 bc3c 9d36 14bc 8a29 813c
-0.048676927 -0.06020343 -0.06511083 0.014691194 -0.003979638 0.0011538261 0.03724938 0.00216148
-0.00484968 -0.001698766 -0.024271732 0.027172485 0.0018335046 -0.045036387 0.00085328554 -0.021917604
-0.029358177 -0.06960257 -0.050469797 -0.007158025 0.0147801675 0.010088593 -0.01257871 0.0047809393
-0.037783496 -0.008224679 0.037844155 -0.002620764 0.008788417 -0.012674479 -0.06695374 -0.014670421
0.01072651 -0.027012246 0.018315893 -0.009505826 0.049915325 -0.028136207 0.013555423 -0.039636787
-0.047939323 -0.0027065221 -0.033107046 0.004795539 -0.031833936 -0.022644708 -0.044766143 0.031575274
0.013799827 -0.014363582 -0.011162186 0.046369508 0.034281798 0.032119144 0.023536947 0.05782313
-0.048816018 0.041337546 0.024084741 0.014369528 -0.06297987 -0.0063400106 -0.013675815 -0.023266822
0.037085302 0.030081268 0.030599417 -0.008091908 -0.022815306 0.03854123 -0.011867883 -0.0030330722
0.04052232 0.03975196 0.0029841433 -0.0026495408 -0.02799465 -0.010437515 0.038334005 -0.04559724
0.017294917 -0.01423875 -0.042849887 -0.013233628 -0.00065478875 0.068247356 -0.012061474 -0.020600231
0.019697089 -0.022961717 0.016206829 0.01003818 -0.05397795 -0.023321362 0.01639779 0.052797753
0.02945022 0.022730676 0.035064373 0.0099418005 -0.02888175 0.002322498 0.028824875 0.044380974
-0.021309236 -0.011444815 -0.033154458 -0.05002099 -0.020888232 0.030016456 -0.023829203 -0.06795046
-0.0030975053 -0.010592121 0.029910892 -0.026026912 -0.022382407 0.012903753 -0.048113752 -0.010911998
0.03733507 0.017824048 -0.015292447 0.052061558 -0.004281579 -0.053539287 0.012505404 0.0016708028
0.05887171 -0.10204682 -0.033183925 -0.0269791 -0.06263358 0.039778378 -0.03875289 -0.02673196
0.037039287 -0.04504138 -0.026137864 0.031065173 -0.010746156 0.0048626363 0.0019234905 -0.06965534
0.020352788 0.005077918 -0.0020283775 0.011090544 0.031647272 0.027470281 -0.035269186 0.06345183
-0.027756128 0.029783187 -0.028158417 -0.034578614 0.031748 0.04950249 -0.02375072 0.0035070467
-0.01360145 -0.05433312 0.026297558 -0.042408235 -0.026399039 -0.011813166 -0.0058339573 -0.024302479
0.021575015 0.030058866 0.009055259 0.0028807982 -0.052890822 -0.007436634 0.03953677 -0.007548813
0.03371476 -0.037925925 -0.03001304 0.002313619 -0.040009197 0.02554933 -0.046398636 0.04674385
0.0012703603 -0.07160844 -0.044189498 0.04542613 0.010629119 -0.028057046 -0.026258044 -0.061535142
0.020535676 -0.042033512 0.023813812 -0.07436201 0.009021853 0.051620845 0.033315096 0.01670724
0.044112284 0.038251765 0.05488229 0.011715685 0.042396136 0.046723746 0.020841947 0.05218262
0.047414977 0.038160365 0.059011832 0.016464168 -0.022907525 0.016835826 0.0073653217 -0.025688477
-0.007745303 0.046036202 0.006289291 -0.010231878 0.030828368 0.035180263 -0.032759674 0.024328839
0.0045582843 0.077217706 0.032013375 0.03927356 0.0071817376 0.039992977 0.0037214637 0.023699924
0.019717941 0.046568826 0.042136475 0.03130036 -0.0020722938 0.020981835 0.024831446 0.003021944
0.01724609 0.025963206 0.011372264 0.05105971 0.016527127 -0.008534941 0.0058235745 -0.014816701
0.026980935 0.06846366 0.042585272 -0.018709205 -0.02312092 0.022975847 -0.009046224 0.015766878

conv3.bias f4 [16]
00000000: 8e15 bebd 3e81 33bd 7310 aabd 838f 7ebd
00000010: 72f5 29be b0d8 09be 55bd 4c3d 1f81 16be
00000020: 5ede fabd f425 70bd f0a4 d5bd 8ea1 0abe
00000030: 8e80 2dbc c499 043d c208 49be 2b9f 9ebd
-0.09281455 -0.043824427 -0.08303919 -0.062148582 -0.16597536 -0.13461566 0.04998525 -0.14697693
-0.122494444 -0.058629945 -0.1043185 -0.1353819 -0.010589732 0.032373205 -0.19632247 -0.07745203

dense1.weight f4 [100, 2288]
00000000: 9886 183d 03ba 17bd baf8 4f3d c6c3 bc3c
00000010: 4867 303d 181e 133c 2e9a 6e3d b10d cd3c
00000020: a7bd 37bd c38a 3ebd 1091 b0b8 bb7d 4c3d
00000030: d3c9 89bc 527d 053c fd9c af3c a86f 3d3c
00000040: 35f4 dd3c 79ea ba3c b166 b43c 84f9 9dbb
00000050: 4930 ef39 6bfc 3c3d 1e11 bebc 4b7b 4bbd
00000060: 16cc 2d3d 483c 443d d813 d43c 1c7d 193c
00000070: 8f41 83bb 95d5 513d 8121 babc add0 48bd
00000080: 65a2 35bd aeee 563c 64a6 35bc d821 ff3c
00000090: a151 e63c cdec 37bc ca49 1e3d 75ea db3b
000000a0: 0517 c83c 76bd 113c 5ea6 e83c 680d 053d
000000b0: e09a e5bc 1126 0abd e3c3 d9bc ad18 ae3c
000000c0: bd16 0abd ca7c 41bd fd13 d03c 6e24 c1bc
000000d0: 7045 35bd 4a51 43bd a361 7bbd e149 deb9
000000e0: 521b b13b 5e37 003d 35e7 ab3c 4632 36bb
000000f0: e7da b83a 14e9 a1bc 0e7b ff3b b818 d6bc
00000100: bcd7 6b3c 707b 963c 653f f5bc 1b53 a2bd
00000110: 23ce 8a3d 738a 033d 565f 823c 321c a33c
00000120: ffdf 0fbd b827 beba add6 c3bc 7e53 15bd
00000130: bc69 093c bc72 f73c 2bee 44bd c2c5 7bbc
00000140: 495e 763d 82ee ddbc 9086 fa3a ac76 c5bb
00000150: 156c f0bb 91e2 f7bc 06ab 0bbd 3bb6 723c
00000160: b7a6 a9bc 8973 5cbd 6242 493b b434 003d
00000170: 2489 99bb e0f9 96bb 57d9 243d 4997 ef3b
00000180: ab4c e0bc 5d00 99bc a2fd 2fbc 0842 3abd
00000190: d711 dfbc 7d64 4ebc ec6b f23c 30e8 27bd
000001a0: b86f fbba 36d5 0ebd 15b4 05bb b979 903c
000001b0: 3ced 33bd 9f92 5fbc 330c 8d3d 3112 35bd
000001c0: 6af7 7c3c 68b5 f83c 8db2 f63b f1dc 8cbc
000001d0: 80db 013d a198 113d 866e 87bd 8fce 213d
000001e0: a745 273c fe78 32bd 5836 c6bd 5276 5d3c
000001f0: 7062 52b9 129f c33a a60d 6b3b 7e8c 1cbd
00000200: 91a2 8cbc 9347 13bd db08 c939 fe2e 64bc
00000210: af57 f63b d359 a8bd ed1d bd3c 4eb4 a1bc
00000220: 2ac5 3fbd aea1 5dbd c7a6 d7bb 7dd1 acbb
00000230: 34db 14bd 3a66 61bb f632 c5bb 479a e1bc
00000240: 196c e2bc 1c7f 1abd e93d 933c 5e84 e6bc
00000250: 283c 58bd d187 4cbd fe38 9f3b 1f94 52bd
00000260: c569 a43c e1ba f7bb dc00 88bd 7bd4 c73b
00000270: 05d5 4dbd 3445 8db9 709b 95bc 5435 eebb
00000280: dee5 2cbc 7b2e a73c 1548 a23c ffc4 9c3b
00000290: 689c d03c 0aee b93b 77dd 81bd fcf2 153d
000002a0: ecc2 4bbc 544e 263c bd6d e1bb 4c13 4f3d
000002b0: a20f 3fbc 3ec2 923c 466f 0dbc 588e 93bc
000002c0: 5016 2b3d 50ff a83b 3853 0c3c e4db 01bc
000002d0: affc ce3b 75e9 ef3c 1c4d ea3b fe86 8a3c
000002e0: bccf d6bc 0c7c 2bbb 9bdf efbb 695d 5938
000002f0: f456 d23c 86a3 5c3d 0a55 8c3d ef87 433c
00000300: 4c6b fabc d3a7 543d c514 203d 6fa6 ec3c
00000310: e077 aebc 4c0b 0a3d cc95 3a3d d0b6 2c3d
00000320: f103 063d dfd1 87bc 0431 ad3c b976 6e3c
00000330: bd99 643b 05b5 04bd 07a4 cf3b b0dc d3bc
00000340: afc1 663b 5a9d 53bc 36ce fcbc 0c19 5bbc
00000350: 184f e4bc 0705 af3c e91c a1bc 3ff7 95bc
00000360: 9d90 b8bc e486 9fbc c331 e13a 0848 503b
00000370: 98f1 01bd 50b1 28bd fc05 21bd 8c11 01bc
00000380: 8d9b fcbc 633a e1bc 5ff9 44bd 7271 24bb
00000390: 90b0 87bc 7a23 a53c 863e abbc 7301 2d3d
000003a0: a48d 863c 3bf1 9b3c 092c b8bb ad43 173d
000003b0: 1734 fe3c 6c33 423d 319c 043c 5575 d33c
000003c0: 1a74 ca3c 8e95 4e3d c1a6 fd3a f610 e63b
000003d0: 3d8b 193c ea04 3c3c 2a78 2a3d 3c09 043d
000003e0: 3271 4b3c cc11 f03c b266 f4bc e437 46bd
000003f0: d880 d1bc e549 ba3c ccd4 c93c 65cc bbba
0.037237734 -0.03704263 0.050774314 0.02304257 0.043067247 0.008979343 0.058252506 0.025030943
-0.0448586 -0.046519052 -8.419354e-05 0.049924593 -0.01681987 0.0081475545 0.021437163 0.011562265
0.027093986 0.022816883 0.022021623 -0.0048210043 0.00045621608 0.046139162 -0.023201521 -0.04967813
0.04243096 0.04790905 0.025888368 0.009368207 -0.004005618 0.05122908 -0.022721054 -0.049027134
-0.044344325 0.013118429 -0.011087034 0.031144068 0.028115096 -0.011225891 0.03864459 0.006711299
0.024425039 0.008895269 0.028399643 0.03248349 -0.028027952 -0.03372771 -0.026582664 0.021252
-0.03371309 -0.04723815 0.025400156 -0.023576941 -0.044255674 -0.047684945 -0.06137241 -0.00042398184
0.005404868 0.031302802 0.020984272 -0.0027800961 0.0014103324 -0.01976446 0.0077966517 -0.026134834
0.014394697 0.018369406 -0.029937455 -0.07926007 0.06777599 0.032114457 0.0159146 0.019910906
-0.03512573 -0.0014507687 -0.023906076 -0.036456577 0.008387025 0.030206077 -0.048078697 -0.015366973
0.06014851 -0.027091268 0.0019113589 -0.0060261097 -0.007337103 -0.030259402 -0.034098648 0.014813955
-0.020709379 -0.05382112 0.0030709733 0.03130026 -0.004685538 -0.004607424 0.040246334 0.007311736
-0.027380308 -0.018676931 -0.010741623 -0.04547313 -0.027230186 -0.0125972 0.029592477 -0.040992916
-0.0019183075 -0.034871303 -0.0020401527 0.017636167 -0.043927416 -0.013645797 0.068870924 -0.0442068
0.0154398475 0.030359939 0.007528609 -0.017195197 0.031703472 0.03554595 -0.066128775 0.03950363
0.0102094775 -0.04357242 -0.09678334 0.013516979 -0.00020063831 0.0014924726 0.003586629 -0.03821992
-0.017167361 -0.03595693 0.00038344305 -0.013927219 0.007517777 -0.082202576 0.023085559 -0.019739296
-0.04681889 -0.054109268 -0.0065811607 -0.0052739964 -0.03634186 -0.0034393207 -0.006018038 -0.027539385
-0.027639436 -0.037718877 0.017973857 -0.02813929 -0.052791744 -0.049934212 0.004859089 -0.05141079
0.020069966 -0.0075601195 -0.06640789 0.0060983277 -0.05025198 -0.00026945176 -0.018262595 -0.007269541
-0.0105528515 0.020407906 0.019809762 0.004784226 0.025465205 0.0056741284 -0.06341069 0.03660868
-0.01243661 0.010150511 -0.006879537 0.050555512 -0.011661442 0.017914888 -0.008632487 -0.01801221
0.041769326 0.0051573887 0.008564763 -0.007925961 0.0063167433 0.029286126 0.0071503054 0.016910072
-0.026222102 -0.0026166467 -0.007320357 5.1823827e-05 0.025676228 0.053866886 0.068521574 0.011934265
-0.030568741 0.051917862 0.039082307 0.028887955 -0.021297395 0.03370218 0.045553014 0.04216653
0.032718603 -0.016579567 0.021141537 0.014554673 0.0034881674 -0.032399196 0.0063366923 -0.025862068
0.003521066 -0.0129159335 -0.030860048 -0.013372671 -0.027869746 0.021364702 -0.019667106 -0.018306373
-0.022529894 -0.0194735 0.0017180968 0.0031781215 -0.031724542 -0.041184723 -0.039312348 -0.007877719
-0.030835891 -0.027493661 -0.04808938 -0.0025092033 -0.016563684 0.020158518 -0.020903837 0.04223771
0.016424961 0.019035926 -0.005620484 0.036929775 0.031030698 0.04741232 0.00809388 0.025812784
0.024713565 0.050435595 0.0019352065 0.007021065 0.009371576 0.011475781 0.041618504 0.03223537
0.012417125 0.029305361 -0.029834125 -0.048393145 -0.025574133 0.022740314 0.024637602 -0.0014327882

dense1.bias f4 [100]
00000000: f00c a137 8d37 cb37 3e5d 5436 07b4 cd37
00000010: db54 84b7 7432 ed35 2953 3b36 ceda a7b6
00000020: 0504 0ab7 a92f c5b7 c6fe 2436 0c20 be36
00000030: 426c 8fb6 e792 c0b7 25c2 2237 b823 12b7
00000040: 1587 b3b6 3899 ee35 8709 be37 6ea2 28b7
00000050: 18fd 0637 f10c d336 8f4e 90b5 39f6 9fb6
00000060: 251f b536 ee63 3137 cb19 39b4 79ea 5937
00000070: bf58 e336 d928 29b7 d57e b6b7 1eaa 10b8
00000080: 2798 8738 5271 c435 f299 5a38 731f 9937
00000090: 763a 3d35 aab8 b1b7 b1f1 bc36 2f75 94b7
000000a0: 1671 2f37 bca4 fcb7 72ab 7cb6 27bb ad35
000000b0: 749d 4336 c8cd fb36 7b58 3037 7c6a 8ab7
000000c0: 705c 0538 b858 f0b7 4db9 5fb6 5714 a2b7
000000d0: bfd7 c7b7 3b72 f5b6 5f57 4437 dd86 7837
000000e0: 335e 04b7 e4d9 79b6 4414 0f37 0801 dab7
000000f0: 520a 5c37 f055 9236 9fa5 04b8 8088 9236
00000100: 2bc0 0137 1842 55b6 c615 6bb6 f643 43b6
00000110: 84a0 b3b6 72d6 8138 9484 3f38 982c 1137
00000120: 2527 72b7 d32d 0937 95c4 28b8 eb62 3436
00000130: f4c4 ceb6 6e77 06b6 6cd6 c936 a491 adb5
00000140: 306d 36b7 4c4b b6b6 7243 0337 500a 2d36
00000150: 3a6b f4b3 9c3a 8db5 63f9 0f37 b727 6d37
00000160: 3c26 0236 ccda a736 1c93 ea36 c516 f6b6
00000170: a6f8 c436 998a a3b7 6863 ddb5 4bfa 00b7
00000180: 8305 dd35 2722 1437 235d efb7 56b1 2bb7
1.919872e-05 2.4225354e-05 3.1644736e-06 2.4521736e-05 -1.577514e-05 1.767256e-06 2.7913577e-06 -5.00246e-06
-8.226377e-06 -2.3506424e-05 2.4586202e-06 5.666172e-06 -4.274335e-06 -2.295659e-05 9.701155e-06 -8.710595e-06
-5.3503413e-06 1.7776974e-06 2.2654202e-05 -1.0051399e-05 8.04595e-06 6.2897966e-06 -1.07517e-06 -4.7672333e-06
5.397846e-06 1.0573289e-05 -1.7238851e-07 1.29888e-05 6.7754586e-06 -1.0082696e-05 -2.1755151e-05 -3.449071e-05
6.465642e-05 1.4636119e-06 5.2118623e-05 1.8253666e-05 7.049306e-07 -2.1186035e-05 5.630973e-06 -1.7697543e-05
1.0457143e-05 -3.0117451e-05 -3.765072e-06 1.2943973e-06 2.9148914e-06 7.504339e-06 1.0511018e-05 -1.6500468e-05
3.179576e-05 -2.8651542e-05 -3.3337449e-06 -1.9321376e-05 -2.3823113e-05 -7.314867e-06 1.1702853e-05 1.4813352e-05
-7.889746e-06 -3.723072e-06 8.528183e-06 -2.5988105e-05 1.3115425e-05 4.3611435e-06 -3.16255e-05 4.3670298e-06
7.733742e-06 -3.1777945e-06 -3.5030403e-06 -2.9096823e-06 -5.353302e-06 6.191143e-05 4.566142e-05 8.653056e-06
-1.4433438e-05 8.176506e-06 -4.0237403e-05 2.6879668e-06 -6.162207e-06 -2.0037073e-06 6.015229e-06 -1.2931891e-06
-1.08734675e-05 -5.4327884e-06 7.823912e-06 2.5785012e-06 -1.138164e-07 -1.0522376e-06 8.581529e-06 1.4135548e-05
1.9393765e-06 5.002459e-06 6.990869e-06 -7.334022e-06 5.8702017e-06 -1.9495654e-05 -1.6494714e-06 -7.68767e-06
1.6467387e-06 8.829439e-06 -2.853439e-05 -1.02336835e-05

batchnorm1.weight f4 [16]
00000000: 3e81 793f 6b00 743f 07b0 823f aecb 833f
00000010: aa89 603f ca4f 733f fddd 7a3f 9b68 823f
00000020: d313 823f 9219 833f 2b42 7b3f 779c 833f
00000030: 6dc2 7f3f a19a 693f 0615 883f 2db6 803f
0.9746283 0.9531314 1.0209969 1.0296533 0.8771006 0.95043623 0.9799498 1.0188173
1.01623 1.0242178 0.9814784 1.0282124 0.99906045 0.9125157 1.0631416 1.0055596

batchnorm1.bias f4 [16]
00000000: 381f 67bd 62ab 90bd 8678 093e 9cb3 283e
00000010: 162e 5ebe 8667 60bd 9790 403e 878f 00be
00000020: 065a 843e e58e 35be 858d 8a3d cc4f c6bc
00000030: 1c75 543d 3d81 4c3e c531 cabd 12e1 1ebd
-0.056426257 -0.07063939 0.13424882 0.16474766 -0.21697268 -0.054786228 0.18805157 -0.12554751
0.25849932 -0.17730291 0.06765274 -0.024207972 0.051869497 0.19971175 -0.09872774 -0.038788863

batchnorm1.running_mean f4 [16]
00000000: 0635 fb3e 5f40 bc3e 6f64 1c3f 6b3b b23e
00000010: 2165 813e 520c b43e 530d 403e 7373 a83e
00000020: 1141 2d3e abe9 2d3f 14f4 db3e 6da4 d63e
00000030: d02d ef3e 5b19 853e aee0 063f f93d 843e
0.4906389 0.3676786 0.6109075 0.34810957 0.25272468 0.3516565 0.18755083 0.3290058
0.16919352 0.67934674 0.42959654 0.41922322 0.4671464 0.25995907 0.52686584 0.2582853

batchnorm1.running_var f4 [16]
00000000: de00 813d b37e 893d 09d8 123e 3293 813d
00000010: 90dc 6a3d 0fb3 c43d e656 1d3d 8555 623d
00000020: b23f 123d ab8c a23d bffe a83d 4e65 1b3d
00000030: cf05 c23d 73ab a43d 71a6 9a3d 639e 363d
0.062989935 0.06713619 0.14340223 0.063269034 0.05733925 0.09604465 0.03841295 0.05525734
0.035705276 0.079369865 0.08251714 0.03793841 0.09473764 0.08040514 0.075512774 0.044584643

batchnorm2.weight f4 [16]
00000000: e8a5 923f 14ac 953f e1e5 933f 9b9b 933f
00000010: 84b7 883f 81eb 903f 708e 873f 2013 903f
00000020: 89a5 9c3f 8500 8a3f 8479 863f e9e2 893f
00000030: a78f 883f dd2b 913f c3a2 883f d46b 8e3f
1.145688 1.1693139 1.1554528 1.1531862 1.0681005 1.132187 1.0590343 1.1255836
1.2238017 1.0781409 1.0505834 1.0772372 1.0668839 1.1341511 1.0674671 1.1126657

batchnorm2.bias f4 [16]
00000000: b6f7 a13d 9197 353d c1c3 32bc e01c dcbb
00000010: c876 88bb 889e 53bc 9411 2fbd 14fc 63bc
00000020: c9f5 0c3b 5abe 963d 25f6 9b3d fa21 8ebc
00000030: ed78 ee3d c833 823d a8f7 543d 407d b23c
0.07908575 0.044333998 -0.010910929 -0.0067173094 -0.0041645505 -0.012916215 -0.042741373 -0.013915081
0.0021508804 0.073605254 0.07615308 -0.017350186 0.116441585 0.06357533 0.051993996 0.02178824

batchnorm2.running_mean f4 [16]
00000000: f727 703f fa3e b23f 037d 903f 27f3 d83f
00000010: d98f 2b3f e135 6a3f 5153 dc3f d4c9 3d3f
00000020: d255 b13f 16cc cf3f 9c78 823f b6ef 923f
00000030: 91f4 cf3f cbaa be3f 9831 5f3f 4f87 813f
0.9381098 1.3925469 1.128815 1.6949204 0.6701637 0.9148846 1.7212926 0.7413609
1.3854315 1.6234157 1.0193057 1.1479404 1.6246511 1.4895872 0.8718505 1.0119418

batchnorm2.running_var f4 [16]
00000000: e446 cb3e 9892 f43e 15a5 183f 36f3 043f
00000010: 75e1 d83e 10e8 153f dcc2 243f db0e b63e
00000020: df5d d43e c839 373f 3bde 283f 68b1 ea3e
00000030: 0f06 393f e0c2 e43e aff6 153f 1205 143f
0.39702523 0.47768092 0.59626895 0.5193361 0.4235951 0.58557224 0.6435983 0.3555821
0.41477868 0.7157254 0.65964097 0.45838475 0.7227487 0.44679928 0.58579534 0.57820237
