models/TS_stagernet.pth (torch_old, 973958 bytes, 16 tensors)

conv1.weight f4 [11, 1, 1, 11]
00000000: 40c1 203e 6cf4 04be 2b90 02bf 4770 723e
00000010: 2527 863d 5bce 23bf 0859 953d 8cea c3bb
00000020: af04 35bc 606a 153c 8e71 b23d d8f6 42be
00000030: ebab cb3e 9b6b 3e3d ba18 4ebe 96a1 02be
00000040: 5897 38b8 bca3 1ebe 4cba 23bd b7bb 333e
00000050: 3816 b73c aae3 9d3e 65cb 883d f239 2e3e
00000060: e52c 85bd d2d6 a1be 65a2 943e 5ed6 913e
00000070: 25ec fa3d 4ee4 bbbb 3112 72bd 0a79 cbbc
00000080: c840 66be 4062 213e d806 49be 7d93 393e
00000090: 7dcd 1abc b731 f83d 1016 f0bd 10d3 4bbe
000000a0: 96d5 5e3e fbea c43c 7c08 6bbe 2346 81be
000000b0: 26c7 0cbf 8a70 9b3d da5c 21be 0292 0d3c
000000c0: ad21 14be 9ddb 9e3e 9313 25be ff3c e8bc
000000d0: 1d2d 62bd 0470 09bd 04ec 0cbe 3506 ff39
000000e0: 70ee abbd 8ff0 9dbd d3e5 ed3d 78a7 673e
000000f0: 5dcd a93e 5d14 fcbd 1496 fc3d 77a7 133e
00000100: 8cc9 e7bd dd5f 69be f7c1 50be b05f b9bd
00000110: 4fb0 94be 615e 473e 74f9 6ebd af3b c6be
00000120: ac27 a73c 539b b03c 0dfd 9cbb 8cf0 48bc
00000130: 02ab 0c3d 1a0f 8e3e 4730 1e3d 9512 92be
00000140: 0507 283e 1d32 84be a6eb cebe 1d0c ac3d
00000150: 6e6f 72bd 5923 c23a 70ab 6cbd 54bf 243d
00000160: 93d8 403c c778 30be 485a 07be a97b 98be
00000170: 91cc 3dbe faec 3a3e 24d4 e33d 0f7c a33e
00000180: 60e1 463e 1afa ce3b d433 f5bb f40a 05be
00000190: 903d 0ebe ef12 003e 7354 153e 5f60 b1bd
000001a0: eff7 e839 1701 91bd 9c1b f43e 8ec2 46be
000001b0: 63c0 56bd a1dc 2a3e 1a2b 023e f5db b43d
000001c0: 7dca 70be c644 c9be 1965 d7bd d811 523d
000001d0: ded3 ab3e 8da6 a23d bd01 9d3e 1a5c 1ebd
000001e0: 0129 d1be
0.15698719 -0.12983865 -0.5100123 0.23675643 0.06550435 -0.6398675 0.07292372 -0.005978888
-0.01104848 0.0091196 0.08713065 -0.19039476 0.397796 0.04648934 -0.2012662 -0.12756953
-4.400997e-05 -0.15492147 -0.03997259 0.17552076 0.022349462 0.30837756 0.066794194 0.17014292
-0.065027036 -0.31609207 0.29030147 0.28483862 0.12252072 -0.005734003 -0.05909938 -0.02483799
-0.2248565 0.15760136 -0.19631517 0.18122669 -0.009448406 0.12118857 -0.11722958 -0.19904733
0.21761164 0.024037829 -0.22952455 -0.25248823 -0.54991376 0.075898245 -0.15758076 0.008640768
-0.14465971 0.31026927 -0.16120748 -0.028349398 -0.055218805 -0.033554092 -0.13761908 0.00048642015
-0.08395088 -0.077118985 0.11616101 0.22622478 0.33164492 -0.123085715 0.12333313 0.14419352
-0.11317739 -0.22790475 -0.20386492 -0.09051454 -0.29040763 0.19469596 -0.058343366 -0.3871741
0.02040466 0.02155844 -0.004790908 -0.012264382 0.034342773 0.27745897 0.03862026 -0.28529802
0.16408928 -0.25819483 -0.4041416 0.08400748 -0.0591883 0.001481156 -0.057780683 0.040221527
0.011770385 -0.17233573 -0.13218033 -0.29781845 -0.18535067 0.18254462 0.11124447 0.31930587
0.19421911 0.0063164355 -0.007482985 -0.1299246 -0.13890672 0.12507223 0.14582996 -0.086609595
0.00044435213 -0.07080286 0.47677314 -0.19410154 -0.052429568 0.16685726 0.12711754 0.08831016
-0.23514743 -0.39310282 -0.1051733 0.05128655 0.3356008 0.07941923 0.3066539 -0.038662054
-0.40851596

conv1.bias f4 [11]
00000000: e219 7e3e 8ed3 09be a9d3 0fbd bf74 26bd
00000010: f949 3a3e 48ae cc3c ad44 aa3e 1d14 b73a
00000020: 662c 753e bafc b6bd 60dd 983e
0.24814561 -0.13459608 -0.035113964 -0.04063868 0.18192281 0.024985448 0.3325552 0.0013967786
0.23942718 -0.089349225 0.29856396

conv2.weight f4 [16, 1, 50, 1]
00000000: a9f1 94bd b22a 9abd 70e4 29be 0d82 44be
00000010: 30b1 03bd 5dd4 d7bc f3a8 e83d 144a 31bd
00000020: 8d5f 2b3e 8ba3 193e ac49 d73d fb35 0d3e
00000030: 1452 943d 698e a93d 5511 d13d 0a8d 48be
00000040: ce42 9cbd 97d8 4abe bd64 59bc 52dc 24be
00000050: db68 48bd 4a48 14bd 8e7b a63d 16b7 203e
00000060: 81e2 613e e2a7 e13d 8d35 3f3e f3c2 023e
00000070: 7826 88bc c199 14be 269d 2bbd 7c62 103d
00000080: 0feb 70be 541e 78be e33c 01be 8d9e 17be
00000090: 2fe5 e43b 94d0 223e 3681 8ebc 7f6c 3b3e
000000a0: 9c9f 403e ee2a 1e3e df70 593d cca2 fdbd
000000b0: 053b c03d 9e3c 53bd fd81 2abe 5956 1dbd
000000c0: 1a85 913c 261b 863c a079 68be 78de 78be
000000d0: 4e3a 7cbe 4216 89bd 3e42 ac3d 496b 2f3e
000000e0: bb67 c63d 7df8 fb3d db27 313e 1f13 1f3e
000000f0: 45b9 e23d e0e7 d03d 7797 963b 68ce acbd
00000100: b8b4 bc3d 3630 14bd cfd5 9abd 44fb 82bd
00000110: 5634 d8bd 3ca5 0bbe 3519 be3d e652 7d3c
00000120: a2a0 84bd b155 cc3d 869b f43d 4182 ccbc
00000130: d100 c0bd 6821 62bd 3b60 98bd 8db5 6bbd
00000140: 178e a53d b240 fabd c1e2 c7bd f513 9b3d
00000150: 6a64 86bd b727 0fbd b5a6 63bd 69d1 c43d
00000160: a75e 17bd 532c 033d cd73 2bbd 8e91 11be
00000170: 7b03 42be 19c5 86be 0ce6 a9bd 6149 8cbc
00000180: 0e13 e9bb 5c78 73bd bd2e 3f3c b953 b13e
00000190: 3232 a53e 0701 5d3e addc 46bd d762 d5bd
000001a0: 60dd c5bd f473 53bc 3f23 51be 0452 1e3c
000001b0: a216 6bbe e209 4bbd be38 43be c49b 4bbe
000001c0: 1e76 46be 01b6 c3bc a380 2ebe f823 383d
000001d0: 34b9 c1bc 935a 33be cdd1 62bc 1924 943c
000001e0: ce49 653d 416c 7abd d839 2ebd 97f8 fe3d
000001f0: 8945 4f3e 8b37 3e3e aeec 323e 7554 4e3e
00000200: 9989 943e 6bea 803d 9852 2d3e 27a1 863d
00000210: 31fe 82bb 02fc 183e b10c 89bd 4987 0d3d
00000220: 6ee6 ca3d e782 da3d d070 d6bb 3397 803d
00000230: 79e7 4c3b f61f 08be 1dd7 3d3d a6e8 19be
00000240: 64f3 1bbe 14bf ecbd 3e9a 983d 44c6 0cbd
00000250: 9ef6 4fbe 0050 acbd 5255 533d 11e2 11bd
00000260: 796a 7c3e e066 f63d bd2a 633e e465 8a3e
00000270: b4bf 593e 6b43 363e f465 babd 22b6 00be
00000280: 7c8b dcbd 0e27 14be db10 12be 382f 71be
00000290: c5ae e7bd 48a4 18be 49f4 20be 575d 3bbe
000002a0: c89b 883c 57ee 843d 4069 dabd a3bf eb3c
000002b0: 702b 803d 1ce8 2d3e f7e4 6f3a b93a 19bd
000002c0: fc0d be3c cb22 083e 3fdc d03d 42ff a53d
000002d0: ae7c 703d afec 823d 136f 883d bfea 07be
000002e0: 15db 87bc ffa5 ec3d 9551 ee3d 7d73 20be
000002f0: 2917 b43d 569b 4c3d dd63 013d 4c6f e1bb
00000300: 6ece cebd 0be5 463d df32 223c bbed 0fbe
00000310: b620 df3d 07bc 433d 0624 e1bd efe8 ccbd
00000320: aab4 3a3e ca69 1b3d 4819 723c 1d68 4a3d
00000330: 9add 433d 52c4 9cbc 164a 163e 56cc 3e3e
00000340: 3fa1 993c 51af 283d 8891 4c3e 174a a73d
00000350: de90 4bbd a64f 3e3d 27e3 c4bd b0f3 08bd
00000360: 7373 0a3d 6075 3bbc dad9 b2bc 8f06 dcbc
00000370: 024c 21be a3a7 6c3d 2e3d ebbc dc6a f23d
00000380: b29c 85bd 1f63 b53d 9243 733d 817e a7bd
00000390: 4877 873d 2fc5 6c3d 167e a9bd 9c7e e4bd
000003a0: b429 40be 0e60 50bd 1a6b 8dbd 2485 24be
000003b0: 783a 71be 2ad3 3fbe 4130 a7bd fcf0 073d
000003c0: dbf9 32bd c373 d8bd 18ac e4bd 1d41 0abd
000003d0: 5d58 373d faec d83d b025 353d ef70 7f3d
000003e0: 0a33 37be 1c33 c3bd c4c1 9a3e ffd3 cb3d
000003f0: a88a ed3c 8216 723e 238e fb3d 86eb 2abd
-0.072726555 -0.07527675 -0.16591048 -0.19190235 -0.0321514 -0.02634638 0.113603495 -0.043283537
0.16735668 0.15003793 0.10512099 0.13790123 0.07242218 0.08279116 0.10208384 -0.19585052
-0.076299295 -0.19809185 -0.013268647 -0.1609967 -0.048928123 -0.036201753 0.08129035 0.15694842
0.2205906 0.11018349 0.18672772 0.1276968 -0.016619906 -0.14511777 -0.041897915 0.035250172
-0.23527168 -0.2423032 -0.12620883 -0.14806576 0.0069853286 0.15899879 -0.017395597 0.18303107
0.18810886 0.15446064 0.053086158 -0.12384567 0.09386257 -0.05157148 -0.16651149 -0.038412426
0.017763663 0.016370367 -0.22702646 -0.24303615 -0.24631616 -0.066936985 0.08411072 0.1713077
0.09687754 0.12303255 0.1730036 0.15534638 0.110704936 0.10200477 0.0045956927 -0.08437806
0.09214157 -0.03617879 -0.07560312 -0.06395581 -0.10556857 -0.1363725 0.092821516 0.015461659
-0.06475951 0.09977282 0.11943726 -0.024964454 -0.09375156 -0.05520764 -0.074402295 -0.057546187
0.08083742 -0.12219371 -0.09760047 0.07572166 -0.06562121 -0.034949984 -0.055578906 0.09610254
-0.036955502 0.032024693 -0.041858483 -0.14215681 -0.1894664 -0.2632225 -0.08295831 -0.017124834
-0.007112867 -0.059440956 0.011668858 0.34634188 0.32264858 0.21582423 -0.048550297 -0.10419243
-0.096613646 -0.012906063 -0.20423602 0.009663109 -0.22957852 -0.04956997 -0.19064614 -0.19883639
-0.19380996 -0.023890497 -0.17041259 0.044956177 -0.023647882 -0.1751502 -0.013843966 0.018083619
0.05597859 -0.061138395 -0.042535633 0.124497585 0.2024137 0.18575875 0.17473099 0.20149405
0.2901123 0.06294712 0.16926038 0.06573706 -0.003997587 0.14939883 -0.06691874 0.034552846
0.09907232 0.10669499 -0.00654421 0.06278839 0.0031265898 -0.13293442 0.046347726 -0.15030155
-0.15229565 -0.11559883 0.07451294 -0.03436877 -0.2030892 -0.08413696 0.05159504 -0.035615984
0.24649991 0.120313406 0.22184272 0.2703086 0.21264535 0.17799155 -0.09101477 -0.12569478
-0.10768792 -0.14468023 -0.14264242 -0.23553169 -0.113126315 -0.14906418 -0.15718187 -0.18297325
0.016675845 0.06490772 -0.10664606 0.028777903 0.06258285 0.16983074 0.0009151245 -0.037409518
0.023200028 0.13294522 0.101982586 0.08105327 0.058712654 0.063928 0.06661811 -0.13273142
-0.016583959 0.11555099 0.11636654 -0.15669055 0.0879348 0.049952827 0.031589378 -0.0068797227
-0.10097967 0.048558276 0.009899824 -0.1405553 0.10894911 0.04778674 -0.10993199 -0.10005366
0.1823298 0.037942685 0.014776535 0.049415696 0.047818758 -0.019136582 0.14676699 0.18632635
0.018753646 0.04118282 0.19977391 0.081684284 -0.049698703 0.046462677 -0.09613638 -0.033435524
0.033801507 -0.011441559 -0.021832395 -0.026858596 -0.15751651 0.05777706 -0.028715696 0.11836788
-0.06524028 0.088567965 0.059390612 -0.081784256 0.06614548 0.057805236 -0.08276002 -0.11156961
-0.18765908 -0.050872855 -0.069051936 -0.16066414 -0.2355746 -0.18732896 -0.081635006 0.033188805
-0.043695312 -0.10568955 -0.11165637 -0.033753503 0.044762004 0.10592075 0.044225395 0.06236356
-0.17890564 -0.09531233 0.30225956 0.099525444 0.02899678 0.23641399 0.1228297 -0.04172852

conv2.bias f4 [16]
00000000: be8f d43c 2e6b 0ebe 461c 533e 7de9 d9be
00000010: 1b02 06bf c7fc 403d dad5 323e 1e82 c5be
00000020: 9c2c 8abe f626 6dbe 62ad bd3e 1c6a ec3c
00000030: f059 88be 3ded babd 88b2 0cbf 5067 663e
0.025947448 -0.13908073 0.20616254 -0.4256095 -0.5234696 0.047116067 0.1746439 -0.38575834
-0.2698716 -0.23159394 0.37046343 0.02885919 -0.26631117 -0.09127281 -0.5495992 0.22500348

conv3.weight f4 [16, 16, 50, 1]
00000000: 3fdc 3cbe 58e9 4dbe 7ff1 9ebd 6c37 aabd
00000010: b66c 633c 2970 2ebd 09b8 babc af84 8e3d
00000020: 50da b93c dab8 e8bd 4c27 a33d 17cd 183d
00000030: 8129 7abc ce33 453e e40b 2a3b 205a 03bc
00000040: 240e d3bd 72e9 b73d d62c 0bbe b2e1 31be
00000050: 5a7e a1bd 3767 313d f31f d93c 3634 36bd
00000060: 04d4 edbd dbe2 c8bd 2061 ffbd 856e 963d
00000070: 9677 e3bd 120c a3bd 6891 393e 8edf 0b3d
00000080: 7793 11be ffbd e53d 1ade 923d a3a4 733d
00000090: c1e8 3dbd d33b fdbd f535 83bd e23f 9fbd
000000a0: ff2e 4dbd 391e 993c d895 c93b 6109 e0bb
000000b0: ca04 99be 95c1 abbd 891e 11be 6a9c 03be
000000c0: 523c 3abd cee2 50be 6325 223e 6649 3a3b
000000d0: ae79 2e3c 5cce dcbd dbf8 1abd 1631 20be
000000e0: 17dd 083d 849d b9bd 74f2 80bd 9626 25bb
000000f0: 36de bfbd f467 cebd 5775 2abd 1b92 17bd
00000100: a4f2 8a3d 8f03 3c3d 2a81 8a3d 96e4 0abe
00000110: cdbf 02be 2955 c6bd fee9 abbd 0233 5dbc
00000120: 6bdd 4a3d 2775 ec3c 740d 76bc 9c0b c0be
00000130: 98a8 90be 754e b2bd 5fb4 5cbd d91a 863d
00000140: 3a79 fcbd 6c13 e93c e0ee 1f3e 84ed d8bc
00000150: 26e2 35bb 41f4 0abd d256 b2bc 7192 163d
00000160: b04b a83c 2f10 d6bd 31dd c0be aab4 d9be
00000170: aea5 89be 8d2b ed3b e7a2 0abd 0882 9ebb
00000180: 1fac 1a3e d49a 8e3d a981 e7bd c4c7 17be
00000190: 6456 b9bc 21a1 383d 544c 45bd a2e5 353e
000001a0: 6be0 123d aac8 abbd f74f 13bc a060 90bd
000001b0: d8f4 ecbc 72f8 023e 6a23 933d 58c4 1cbd
000001c0: ad55 56be 0f90 363d 1cca 023e 63bb 243e
000001d0: 84db febc ed80 623d 319d ca3d 9ac9 a3bc
000001e0: 1fef 38bd 1177 81bb cd2a 043e 3c61 83bd
000001f0: cc4b 253e d808 bb3d 8608 cd3d bd07 dabd
00000200: 35bd 22be 49e4 bb3b 6d8b 4d3d 08e9 b43d
00000210: d6fe b93d afb1 c03c f9c6 06be b9c2 0fbe
00000220: ac6b 313d 895c f33d 401a 15be 1f24 383d
00000230: 05f1 8a3d 1746 fc3c ab27 b3bc ecd1 783d
00000240: c257 2e3c a399 e83d c9c7 d33b 3794 aabb
00000250: b4e2 793d 05f2 2cbd 68b8 a03a 37da 24be
00000260: c2ff f93c f4dc 293d e2b7 513e 2c74 05bd
00000270: 5caf 5e3d b455 51bd 2ef6 b7bc 9a2f bbbd
00000280: c7df 103e d6d1 663d 88b9 96bd a5fb 07be
00000290: 8754 473d f559 ad3d 17e9 093e eddd 243d
000002a0: 7789 04be 2525 a9bc 290c e23d f819 063d
000002b0: 0504 c03d 8e7e ba3c 33ac 103e bff9 b13d
000002c0: 623a 623d a0bc 6dbe 9d31 14bd 214e 82bd
000002d0: dbd8 cabd edeb 84bb 1dd1 85bd 1f05 d4bc
000002e0: 3d08 96bd 67b7 52be 084a b4bd bf9f f03c
000002f0: 2220 c53d fe96 0b3e 7bb3 223e eeec 0bbd
00000300: 3b46 b13d 5688 cfbd 1270 f53d a64c 053d
00000310: 4d40 c73c c7c4 9c3d 5b2f e63d 0898 23be
00000320: 1445 7e3d cc5c 9a3d d74f a53d 6464 013d
00000330: 1972 893c c350 513d 5423 0eba 5bb9 78bb
00000340: 480d 4c3d 81a3 003e 0b6f d73c 008b 1bbd
00000350: 528c 513c 2995 623d 7515 bd3d a84f 56be
00000360: d9f6 88be 92ec 823e 482b e93d 0a53 a03d
00000370: 251c 083e c4ac 673d ff86 f0bb 418f 1fbd
00000380: 7c8f fe3d 2dff 16bd 7b1b c5bd 7ef6 f73d
00000390: 61e7 ec3d 0d72 573e 75a7 24bd 5ccb 583d
000003a0: 2722 32bd 44a9 fabd de8f feba ab5d 953d
000003b0: cb9b b73d e964 6ebd 632b 8e3d 91e6 5e3e
000003c0: aa71 983d 71c6 58bd 6996 513d c5b3 2b3d
000003d0: 7704 8b3d 40c9 983c 4e5f 6a3d 603a e8bc
000003e0: c7c7 d6bc 51aa 973d 7c16 27ba cb4e 763c
000003f0: 5239 f93b d952 603d 9c75 a03c 8ec8 5bbb
-0.18443392 -0.20108545 -0.077609055 -0.08311352 0.013880899 -0.042587433 -0.022792833 0.06958901
0.022687107 -0.11363383 0.0796648 0.037304964 -0.015268684 0.19258043 0.0025947029 -0.008017093
-0.103054315 0.08980073 -0.13591322 -0.17371252 -0.07885428 0.043311324 0.026504492 -0.044483386
-0.116127044 -0.09808894 -0.12469697 0.07345299 -0.111067936 -0.079612866 0.18121874 0.034148745
-0.1421641 0.112178795 0.07171269 0.05948318 -0.04636455 -0.12364926 -0.06406776 -0.077758566
-0.050093647 0.01869117 0.006151896 -0.0068370556 -0.29886466 -0.08386532 -0.14171804 -0.12852636
-0.045467682 -0.20399019 0.15834574 0.0028425097 0.010649128 -0.107815474 -0.037834983 -0.15643725
0.033413973 -0.09063247 -0.06296244 -0.00252 -0.09368555 -0.10078421 -0.04161581 -0.03700457
0.06784561 0.04590183 0.06762917 -0.13563761 -0.12768479 -0.09684212 -0.0839424 -0.013500931
0.049527567 0.028864456 -0.015017856 -0.37508857 -0.28253627 -0.08706371 -0.053882953 0.065480895
-0.1232781 0.028451644 0.15618467 -0.026480444 -0.0027753203 -0.033924345 -0.021769915 0.03676075
0.020543903 -0.104523055 -0.37668756 -0.42520648 -0.26884216 0.0072378577 -0.033846762 -0.0048372783
0.15104721 0.06963125 -0.113040276 -0.14822298 -0.022624202 0.04507554 -0.048168495 0.17763379
0.035858553 -0.08387883 -0.008991233 -0.0704968 -0.028925344 0.12790087 0.07184489 -0.038273185
-0.2093112 0.04457098 0.12772411 0.16087107 -0.031110533 0.055298734 0.09893263 -0.019993592
-0.04514992 -0.0039509614 0.12906952 -0.0641503 0.16142195 0.09132546 0.10011391 -0.10646007
-0.15892489 0.005734001 0.050181795 0.0883351 0.09081809 0.023522226 -0.1316184 -0.14039125
0.043315575 0.11882884 -0.14560795 0.044956323 0.06784252 0.03079514 -0.021869501 0.060747072
0.01064104 0.11357429 0.006463025 -0.005205657 0.061007217 -0.042222995 0.0012261989 -0.16098867
0.030517463 0.041470483 0.20480302 -0.032581493 0.054366454 -0.051107123 -0.022456255 -0.09139939
0.14147864 0.05635246 -0.07359606 -0.13279589 0.048664596 0.084644236 0.13467823 0.040250707
-0.12943064 -0.020647595 0.110374756 0.03273961 0.09375767 0.022765424 0.14128189 0.086902134
0.05523146 -0.23216486 -0.036180127 -0.06362558 -0.09904643 -0.004056445 -0.06534026 -0.025881348
-0.0732579 -0.20577775 -0.08803183 0.029373048 0.096252695 0.13631818 0.15888779 -0.0341615
0.086559735 -0.10133426 0.11984266 0.0325438 0.024322653 0.0765472 0.11239501 -0.15975964
0.062077597 0.07537231 0.08071869 0.03158988 0.016778039 0.05110241 -0.00054221344 -0.0037952277
0.049817353 0.12562372 0.026298067 -0.037974358 0.012789803 0.05531803 0.09232608 -0.20928824
-0.2675083 0.25571114 0.11385208 0.078283384 0.13291986 0.056561247 -0.0073403115 -0.038954977
0.12429711 -0.03686445 -0.09624382 0.121075615 0.115675695 0.210396 -0.040198762 0.052928314
-0.0434896 -0.12239316 -0.0019421538 0.07293256 0.08965262 -0.058201704 0.06941869 0.21767642
0.07443555 -0.052923623 0.051168833 0.04191949 0.06787961 0.018650651 0.057219796 -0.028348148
-0.026218308 0.07405532 -0.0006373895 0.015033434 0.00760571 0.05476651 0.01958733 -0.0033536288

conv3.bias f4 [16]
00000000: cacc e8bd 8e63 cfbe 2e06 c1be fac3 e8bd
00000010: 8124 43bd 11af d7bd ef69 73be 4626 83bc
00000020: 4d07 bdbe 0378 06bd 4f95 9fbe 38b9 bcbe
00000030: 4890 9fbe ed04 72be 6368 dcbe 73ed 10be
-0.113671854 -0.40505642 -0.37700027 -0.113655046 -0.047642235 -0.10531438 -0.23770879 -0.016009461
-0.36919633 -0.032829296 -0.311686 -0.3686006 -0.31164765 -0.23634692 -0.4304839 -0.1415308

dense1.weight f4 [100, 2288]
00000000: 9ca2 9cbd 463a 62bd 75fc d1bb a5da 323e
00000010: e656 e73c 7bd1 fa3d 821f 2fbd 2e0e 98bd
00000020: 5344 6a3d 16ba 62bc a1b2 513d 4358 32bd
00000030: 56cf 0e3d 9655 4abe 39d5 d23d f4f2 3d3d
00000040: 0ec7 78bd 859f a4bc c736 23be 2777 95bd
00000050: 2906 8cbd b17c e63c aa34 213c 969b 773c
00000060: b7f4 cfbc cc35 16bb b375 6abd 2170 c23d
00000070: 054c 173d 497b babc bc52 a8bd 4af5 633d
00000080: c2fb 49be de0d 133d eaac 903b 137c 5f3d
00000090: 7cd4 5dbd 9f16 ca3d e8ce fb3c 3ab9 a33d
000000a0: 25eb 2cbd be1c 8fbc 7871 17be 4b13 e73b
000000b0: 5ab2 c43d d0ee 4f3c aa27 ad3d 64ad 97bd
000000c0: 7e75 d93c 8fef 033b ae13 793d 3a7d d43c
000000d0: ee24 023e a51f 08bd 8112 443d a628 303d
000000e0: afa8 56be a35f 2d3e 93d4 2cbd 3ea5 bf3d
000000f0: 4e79 54b7 96f8 c53d 5d09 a63d 5c17 163c
00000100: 35d7 97bd 04a8 55ba 0354 abbc 954a 01be
00000110: cb30 b7bd 95fb b63b 4ea5 0fbe 802a a43d
00000120: 78de 6b3d 50f6 23bd 3880 cb3d dbd7 1f3e
00000130: b4f8 353e fc42 c5ba 2bac b1bd bbb6 373c
00000140: 5b8b 9b3c 05bc a5bd 1d77 9b3d 196a 0bbc
00000150: eac7 e43c 3508 fc3d 687f ffbd 0209 1dbd
00000160: cd9e 8b3d 1bd1 bfbc 78be ffbc 33e6 6e3e
00000170: 26a3 c83d ae7e 4e3e bbe8 f03d 2d8b 8b3b
00000180: 2c36 d03d e17f 0ebd 13af cb3c 4f72 343c
00000190: f718 363d d40a e33c 5501 693d 6214 24bd
000001a0: 5437 d5bc 4e4e 0e3d 3144 1c3d 6993 413b
000001b0: cfda 1abd 70d3 af3c 72c6 d43d c186 37bc
000001c0: 505d 093e 9164 1abe 50d6 a93c e1a6 a93d
000001d0: 6c43 dcbb 4e45 9b3d bc6a 09bd 88dd 173e
000001e0: c8bb 293e d4d2 52bd 88af a63b 7e65 1abe
000001f0: f1ca 113e e038 36be 8828 d0bc 7c5b b3bd
00000200: 029f e73b fcf7 a03b 680e 6f3c a5d9 243c
00000210: 6edd de3d 9836 a43d c86b d4bd 2be4 d0bd
00000220: d6a8 3b3e 7f88 3dbe 29ef fd3d 5c0e 19bd
00000230: a125 0ebd 5346 9f3d 703d b13c cb8d 0dbd
00000240: 46ec 05be f95b 093c de60 efbd 2727 963c
00000250: cc1a f33d b573 65bc ed21 403c 6f0c a33d
00000260: 5929 e73c 637f 5abd a923 85bc 516b 153d
00000270: cae1 d4bc 0d65 dd3d ff62 2b3d c46b 1bbc
00000280: 9e02 e6bc b1c7 273d 7fcc 2cbd a5cc 1ebd
00000290: 8d3e bfbb 541d 8a3d 2811 ce3d f6f5 cbbd
000002a0: df07 033d dda0 b13d 919b d1bb 4502 1d3d
000002b0: 1892 a73d 3cd8 efbd 8791 24be 2243 2abd
000002c0: 3e3d 1d3e b12a ccbd 4081 e5bc 08a4 e13d
000002d0: 8020 003e 5a0e 283e 3ecf 143e 303a 443e
000002e0: e692 b0bd 2e9b 5d3c aad2 8ebd 8a27 3fbe
000002f0: 8188 ee3c 628b f23c af17 793c d7d8 e2bd
00000300: 57f7 79bc 972d fcbd 2c83 69bc cb2b 50be
00000310: adbf 86ba b677 26be f342 ac3c 1c93 04be
00000320: 2ac4 0fbd 6936 c63d 5443 f3bc 5022 b0bb
00000330: d15a e03c 6dcf 783b 08d6 76bd d750 183e
00000340: 4a6b eb3d a689 363e 8c94 82be e191 1c3d
00000350: f5c0 45be 2a41 1c3d 34c1 573e 2e2a 213e
00000360: 094a cc3d 0bee cb3a ac76 9fbb cf92 35be
00000370: 7d39 6a3d c3bd 0c3d f5b2 723e 2c30 f6bd
00000380: 88e1 bc3d b156 993e 1b70 103d 16df a5bd
00000390: b936 ec3d 5f5a bc3d aca7 c4bd 61cb 2cbd
000003a0: 566e f1bd fd3d d73b 4539 bf3c 805b 143c
000003b0: 1745 b5bc 405e 94bb bca9 2ebc 581a 74be
000003c0: 4f99 efbd 8d81 bdbd 53ab 823d 7da5 05be
000003d0: fb4a ca3c ce04 b7bc 16e4 4e3d 4a21 6e3d
000003e0: 84b4 a13d 1dc2 11bd ed42 22be 8cb3 9a3c
000003f0: 7af5 acbd 263f 053d 449a 28bd 091d 403c
-0.07648203 -0.055231355 -0.006408269 0.17466219 0.028239679 0.122469865 -0.042754658 -0.074245796
0.057194065 -0.013838312 0.051195744 -0.043541204 0.0348657 -0.19759211 0.10294575 0.046374276
-0.06073671 -0.020095596 -0.15938865 -0.07298117 -0.068371125 0.02813563 0.009839216 0.015112778
-0.025385244 -0.002292025 -0.057241153 0.09494043 0.036937732 -0.022763865 -0.08218905 0.055653848
-0.19724944 0.035901897 0.004415144 0.054561686 -0.05415772 0.09867596 0.030738309 0.079943135
-0.04221644 -0.01746976 -0.14789379 0.0070518604 0.0960433 0.012691215 0.08454831 -0.074061185
0.026545282 0.0020131802 0.060809784 0.025938619 0.127094 -0.033233304 0.04786921 0.043007515
-0.20962785 0.16931014 -0.042194914 0.09357689 -1.2664428e-05 0.09666555 0.08107255 0.009160843
-0.07414094 -0.00081503415 -0.020914083 -0.12626107 -0.089448534 0.00558419 -0.14027902 0.08015919
0.05758521 -0.040029824 0.09936565 0.15609686 0.17770654 -0.001504987 -0.086754166 0.011213
0.018987348 -0.080925025 0.075910784 -0.008509182 0.027927358 0.12306253 -0.12475473 -0.03833867
0.06817398 -0.023415139 -0.031218752 0.23330002 0.09796743 0.20165512 0.1176314 0.0042585344
0.101665825 -0.034789924 0.024863755 0.011013581 0.044457402 0.027715124 0.056886036 -0.0400585
-0.026027359 0.034742646 0.03815097 0.0029537326 -0.03780633 0.021463126 0.10389413 -0.011201561
0.13414502 -0.15077426 0.020732075 0.08283783 -0.0067219045 0.07581578 -0.033549055 0.14830601
0.16575539 -0.051470593 0.005086843 -0.15077779 0.14237572 -0.17795134 -0.025409952 -0.08757684
0.0070685158 0.0049123745 0.014590837 0.010061656 0.10882078 0.080182254 -0.1037212 -0.101997696
0.18326125 -0.185091 0.12399132 -0.03736721 -0.034703854 0.07777085 0.021635741 -0.034559052
-0.13078412 0.008383744 -0.11688398 0.018329216 0.118703455 -0.0140046375 0.011726839 0.07961356
0.028217958 -0.05334414 -0.016252356 0.036479298 -0.02598657 0.108102895 0.041842457 -0.009486143
-0.02807742 0.040961925 -0.04218721 -0.038769383 -0.005836314 0.06743875 0.10061866 -0.09959023
0.03198993 0.0867326 -0.006396719 0.038332243 0.08182162 -0.11711165 -0.1607114 -0.04156793
0.15355393 -0.0996908 -0.028015733 0.110176146 0.12512398 0.16411725 0.14532182 0.19162822
-0.08621769 0.013525767 -0.06973775 -0.18667427 0.029117825 0.029607479 0.0152034005 -0.11076515
-0.015256724 -0.12313383 -0.014252465 -0.20329206 -0.0010280513 -0.16256604 0.021028018 -0.12946743
-0.035099186 0.09678347 -0.02969519 -0.005375184 0.027387055 0.0037965432 -0.06026271 0.14874588
0.11495073 0.17825946 -0.25503957 0.03822506 -0.19311889 0.038148083 0.21069795 0.15738747
0.099750586 0.0015558613 -0.0048664417 -0.17731784 0.05718373 0.03436066 0.23701079 -0.12020907
0.09222704 0.29948953 0.035263162 -0.08099191 0.11533875 0.091969244 -0.09602293 -0.042186145
-0.11788623 0.006568669 0.023342738 0.009055018 -0.022127671 -0.004527837 -0.010660585 -0.23838174
-0.11699163 -0.092532255 0.06380334 -0.1305141 0.024693957 -0.022341158 0.05051049 0.058137216
0.07895759 -0.03558551 -0.15845843 0.018884443 -0.084452584 0.032530926 -0.041162744 0.0117256725

dense1.bias f4 [100]
00000000: 7617 4fb7 ce7e 60b8 4560 6d38 e6a2 5ab8
00000010: 3dba c0b8 a265 48b8 2201 6838 91ea 8fb6
00000020: f44e 8e36 7cb2 e2b8 3bc9 83b7 6969 68b7
00000030: 5e90 1b39 b27e 8cb8 8555 6038 6ef8 a536
00000040: 58eb 09b7 0742 58b7 7080 6ab8 b1ad 8f38
00000050: d4fc e037 775c 3bb7 0ffa e437 e896 6738
00000060: a4a8 b237 ed80 d1b8 8e5a 9037 ba3a 9a38
00000070: 0980 f1b7 fa36 b336 e51b 08b8 46e0 eeb8
00000080: c9d1 9c37 5519 3938 4676 2937 9c7a d937
00000090: 0a16 ac37 e755 e936 f3c3 8b38 43d6 ee37
000000a0: 9e46 aeb6 e598 1338 20dc 7838 ef65 2b38
000000b0: aa91 1ab7 3607 84b7 39b9 7bb8 d0d3 8eb7
000000c0: 8ccf 8f36 a06d 2038 3fa7 dab7 d643 24b7
000000d0: 1f4c b0b8 b50b 4e38 4e0b adb8 d88f 85b6
000000e0: f225 0c38 cc6f 5b36 7d4e 77b7 b015 8bb6
000000f0: 5c2e 3138 21c3 4eb7 2b8c 6038 489a 3f38
00000100: 89f4 8eb8 80a6 5237 dd5c 7fb8 98a9 6038
00000110: bafa 9bb5 158f 3bb7 5bc1 3937 b3d0 c6b6
00000120: 2a4a 3137 0471 20b8 e003 28b7 4a9d be37
00000130: 5a9e a737 c462 84b7 b833 c8b7 2f78 9db7
00000140: aa14 9bb7 53eb 73b8 ad23 1e37 f99a de37
00000150: 37ca 15b8 a283 aa37 d593 fab7 ce35 8137
00000160: b9de c5b6 a307 98b8 8969 7138 a73f 00b8
00000170: 1365 9fb7 b792 d337 55a1 7bb8 1bed bbb8
00000180: 307c bcb8 2333 7736 5ab4 46b7 baf6 5d37
-1.2343624e-05 -5.3523858e-05 5.659486e-05 -5.212696e-05 -9.189963e-05 -4.777837e-05 5.5314165e-05 -4.289039e-06
4.241121e-06 -0.00010809765 -1.5710122e-05 -1.385282e-05 0.00014835733 -6.699319e-05 5.3485408e-05 4.946304e-06
-8.220632e-06 -1.28899765e-05 -5.5909564e-05 6.851124e-05 2.6820613e-05 -1.1167597e-05 2.729616e-05 5.5215234e-05
2.1297783e-05 -9.989911e-05 1.7208306e-05 7.354231e-05 -2.878906e-05 5.341016e-06 -3.2450906e-05 -0.000113904985
1.8694338e-05 4.413103e-05 1.0100723e-05 2.592551e-05 2.051426e-05 6.9539415e-06 6.664535e-05 2.8471584e-05
-5.193825e-06 3.5189925e-05 5.9332815e-05 4.086451e-05 -9.21303e-06 -1.5738984e-05 -6.0015565e-05 -1.7026352e-05
4.2858937e-06 3.824907e-05 -2.6065505e-05 -9.790956e-06 -8.406513e-05 4.912513e-05 -8.2513885e-05 -3.9804545e-06
3.341394e-05 3.2698617e-06 -1.4740622e-05 -4.1450476e-06 4.2243264e-05 -1.2323989e-05 5.3536303e-05 4.5681634e-05
-6.816636e-05 1.2555742e-05 -6.0883223e-05 5.356371e-05 -1.1621371e-06 -1.1179382e-05 1.1071878e-05 -5.9251556e-06
1.056729e-05 -3.8252227e-05 -1.00144825e-05 2.2723008e-05 1.998169e-05 -1.5781618e-05 -2.3865941e-05 -1.8771823e-05
-1.8487062e-05 -5.8154877e-05 9.42584e-06 2.6536627e-05 -3.5712696e-05 2.0326876e-05 -2.9871162e-05 1.5403053e-05
-5.896986e-06 -7.249347e-05 5.7557165e-05 -3.057686e-05 -1.9001343e-05 2.522148e-05 -5.9993316e-05 -8.961019e-05
-8.98767e-05 3.6835634e-06 -1.1843711e-05 1.3230072e-05

batchnorm1.weight f4 [16]
00000000: 668c 833f bcaa 323f 3702 683f 07e6 5c3f
00000010: edb5 5e3f 2660 8c3f 5716 343f 4474 8e3f
00000020: 1c3e 623f a363 8c3f 1164 753f 297d 823f
00000030: 2d81 483f db3b 7d3f 3887 693f 33b2 823f
1.0277221 0.6979177 0.9062838 0.86288494 0.86996347 1.0966842 0.7034659 1.1129231
0.8837602 1.0967907 0.95855814 1.0194446 0.78322107 0.9891946 0.9122195 1.0210632

batchnorm1.bias f4 [16]
00000000: dfbb bb3e d7eb d93e d993 673e bc44 a73e
00000010: f3cf 973e 16fe 263e 7c9d f83e 6400 b13e
00000020: a3dd a6bd ab58 8b3e c1c6 133c e949 fe3e
00000030: 215e ca3e 50af 913e a3d7 8a3d da15 113f
0.36666772 0.42562744 0.22614993 0.32669628 0.2965084 0.16307864 0.4855765 0.3457061
-0.081477426 0.27216086 0.009019555 0.49665764 0.3952494 0.28454065 0.06779411 0.5667397

batchnorm1.running_mean f4 [16]
00000000: 0e51 743e 8cd4 3b3e 8e1b 123f b18d e93d
00000010: ca0d 013e 0271 2a3f daff 183f fb10 a53d
00000020: d8a1 0a3f 9c68 853e c097 3d3f 1e00 cd3e
00000030: 3507 043f 8b97 a03e a0b5 bf3d 0a10 543f
0.23859045 0.18342799 0.57073295 0.114039786 0.12602916 0.66578686 0.597654 0.080598794
0.54153204 0.26056373 0.7405968 0.40039152 0.515735 0.31365618 0.09360814 0.82836974

batchnorm1.running_var f4 [16]
00000000: bf35 ec3c bb3e 8b3d 2114 3a3e cc46 453d
00000010: c68e b73d c6f9 503f 33e8 d33e 561d 023d
00000020: d27c 3a3f 6197 1f3e 805c eb3e d241 f33d
00000030: 1735 093f 6c86 003e 556e 513d f4d3 2f3f
0.028834222 0.06799074 0.18171741 0.04816322 0.08962779 0.81631124 0.4138809 0.03176626
0.7284671 0.1558509 0.4596901 0.118777886 0.53596634 0.12551278 0.05113061 0.6868279

batchnorm2.weight f4 [16]
00000000: e2c4 203f 96e9 143f 1bb1 6b3f dde7 203f
00000010: 129c 1b3f 8a16 303f aad3 363f df9d 203f
00000020: 418a 1b3f 5770 1c3f 1e59 1d3f ea8c 233f
00000030: e9e6 193f 0973 1f3f dd91 193f 9c03 203f
0.6280042 0.58168924 0.92067116 0.62853795 0.6078502 0.6878439 0.71416724 0.6274089
0.60757834 0.61108917 0.6146411 0.6388689 0.60117966 0.62284905 0.59988195 0.6250551

batchnorm2.bias f4 [16]
00000000: 48e6 373c c4dc 36bd e945 033e c905 5f3b
00000010: 7373 bcba 87c9 b73d 2e0c 173d 9e1c 603d
00000020: a39a 2dbd a5c3 c63b 089b ce3b a767 413d
00000030: feae 97bc 5d22 583c 46f1 3cbc 5a2a 003b
0.011224337 -0.044644132 0.12819637 0.0034030548 -0.0014377668 0.08973985 0.03687685 0.05471479
-0.0423838 0.006065803 0.0063051023 0.04721799 -0.01851606 0.013191787 -0.011532133 0.0019556493

batchnorm2.running_mean f4 [16]
00000000: 88b0 ea3f 44dc a03f 65b5 c13e d485 5140
00000010: c411 0940 3f88 7f3f 5f2b 853f 6cfa 0240
00000020: addc 0c40 7ad4 5b40 d77f 7c40 05be 3f40
00000030: 91d0 9b3f 4b9b f53f ae5e 0340 e7d1 3740
1.8335123 1.256722 0.37833706 3.2737932 2.1417093 0.9981727 1.0403861 2.0465345
2.200969 3.4348435 3.9453027 2.9959729 1.2173024 1.9188017 2.0526538 2.8721864

batchnorm2.running_var f4 [16]
00000000: 4436 6b40 a1a6 1c40 c0c1 743f c749 9840
00000010: d605 8840 5b1e 1640 1b03 3840 88f3 9a40
00000020: 2ae0 8540 46e4 9340 2fb2 b240 6017 a140
00000030: 65b8 1440 70b5 8f40 1813 8040 65c9 7b40
3.675187 2.4476702 0.9560814 4.759006 4.2507124 2.3456028 2.8751895 4.842228
4.183614 4.6216154 5.584251 5.0341034 2.3237545 4.490898 4.002331 3.9341671
